model/model_weights.pth (torch, 236062 bytes, 80 tensors)

node_embedding.weight f4 [18, 9]
0	0x3e830de8	0.25596547
1	0x3e8da79a	0.27666932
2	0xbda4bdf9	-0.08044047
3	0x3e9c4508	0.30521417
4	0xbda5e4fa	-0.081003144
5	0x3d156b67	0.03647938
6	0xbe277a20	-0.1635518
7	0x3e503883	0.20334058
8	0x3e93928c	0.28822744
9	0xbe81d0ed	-0.2535471
10	0x3e9457c3	0.28973207
11	0x3d6bdaa5	0.057581563
12	0x3e738914	0.2378276
13	0x3d676f2d	0.05650251
14	0x3e46014a	0.19336429
15	0xbd5e4205	-0.05426218
16	0x3e77be07	0.24193583
17	0x3d34e19c	0.04416047
18	0xbe1e41f3	-0.15454845
19	0x3dae02b6	0.08496611
20	0xbe181eb2	-0.1485546
21	0xbd14cd85	-0.03632881
22	0xbe02b96b	-0.12766044
23	0x3e42d546	0.1902667
24	0xbe849628	-0.2589581
25	0xbe24e5e8	-0.16103327
26	0xbdb59819	-0.08866901
27	0xbe54b5bb	-0.2077245
28	0x3d00dd4b	0.03146104
29	0xbeacd452	-0.33755738
30	0x3e967049	0.29382542
31	0xbe95fd12	-0.2929464
32	0x3e71323a	0.23554316
33	0x3d435525	0.047688622
34	0xbde1ce1b	-0.110256396
35	0x3e4ec873	0.20193653
36	0x3d6a9bc0	0.05727744
37	0x3e89e476	0.26932114
38	0x3d185838	0.037193507
39	0xbdca92e2	-0.09891297
40	0x3da02cc3	0.078210376
41	0xbdd0eb83	-0.1020117
42	0x3e148369	0.14503254
43	0x3ea209c2	0.3164807
44	0x3e4a56f4	0.19759732
45	0xbe100584	-0.14064604
46	0x3e450a28	0.19242156
47	0x3d815bb5	0.0631632
48	0x3e35f1fe	0.17768094
49	0xbe4bb5d1	-0.19893576
50	0xbeb13f55	-0.3461863
51	0xbdf8daad	-0.12151084
52	0xbe7bb9b7	-0.24582563
53	0x3e8d9f10	0.27660418
54	0x3dcfd763	0.10148504
55	0x3e0d6288	0.13807118
56	0x3de82720	0.113355875
57	0x3ab3b6e2	0.001371112
58	0x3e93741f	0.2879953
59	0xbe4a427f	-0.19751929
60	0x3cf6bbcc	0.030118845
61	0xbe73ce30	-0.23809123
62	0x3de82b81	0.11336423
63	0xbdf5a160	-0.119936705
64	0x3dd12e20	0.10213876
65	0xbd9b6f04	-0.07589534
66	0x3e8a2883	0.26984033
67	0xbe56ebfe	-0.20988461
68	0xbe5f204c	-0.21789664
69	0xbe531abf	-0.20615672
70	0x3e97a815	0.29620424
71	0x3dd9f78f	0.10642921
72	0x3ea625aa	0.3245061
73	0xbe8cd8df	-0.2750921
74	0xbeaaa3c8	-0.3332808
75	0xbe85c112	-0.26123863
76	0xbe76b4f2	-0.24092463
77	0x3dcf4f8e	0.10122596
78	0x3df31cb1	0.11870707
79	0x3e916050	0.28393793
80	0xbe34d121	-0.17657901
81	0xbe655007	-0.2239381
82	0x3e351aa0	0.17685938
83	0xbe0abbbd	-0.13548179
84	0x3e4fd342	0.20295432
85	0xbdd50a52	-0.10402359
86	0x3e23c5d0	0.15993428
87	0xbe84dd4c	-0.25950086
88	0xbe1a335f	-0.15058659
89	0x3dd49a93	0.10381045
90	0x3da59af5	0.08086196
91	0xbdae0d46	-0.084986255
92	0x3e5b01ca	0.21387401
93	0x3e768add	0.2407641
94	0xbe635c15	-0.22203095
95	0xbe10cfb4	-0.14141732
96	0x3ea18849	0.3154929
97	0xbddd983e	-0.108200535
98	0xbde1a8ca	-0.11018522
99	0xbeb187aa	-0.34673816
100	0xbe4378b0	-0.19089007
101	0x3d80f50b	0.06296738
102	0xbd8ac67c	-0.06776139
103	0xbe8ab50d	-0.27091256
104	0xbb42fef5	-0.0029754017
105	0xbe7f3b7f	-0.2492504
106	0xbe9232c2	-0.2855435
107	0xbe40880e	-0.188019
108	0xbe98ccff	-0.298439
109	0xbe595706	-0.21224603
110	0x3eac4b67	0.33651277
111	0x3d767212	0.06016738
112	0x3df0dee4	0.11761263
113	0xbe971c6b	-0.2951387
114	0xbe615b50	-0.22007489
115	0xbdf69c1b	-0.120414935
116	0x3d64abad	0.055827785
117	0xbe9702de	-0.29494375
118	0xbe131243	-0.14362435
119	0xbe50e054	-0.20398074
120	0xbb176aad	-0.0023104355
121	0xbe0b134f	-0.13581584
122	0xbd410593	-0.047124457
123	0xbe6b810a	-0.22998443
124	0xbe6601f1	-0.22461678
125	0xbe4d0ccf	-0.20024417
126	0xbde2640d	-0.110542394
127	0xbe86b436	-0.26309365
128	0x3e9048c1	0.28180507
129	0xbd89ca14	-0.067279965
130	0x3e87268f	0.26396605
131	0x3d700869	0.05860177
132	0xbe920b48	-0.28524232
133	0x3e7b7f37	0.24560247
134	0xbdc1a330	-0.09454954
135	0xbe04b652	-0.12960175
136	0xbe8daa56	-0.27669019
137	0xbeaaf8a4	-0.33392823
138	0x3dc0823c	0.0939984
139	0xbda6cc5a	-0.08144446
140	0x3df3a9c0	0.118976116
141	0xbe8d3992	-0.27582985
142	0x3e81b0af	0.2533011
143	0xbe7d85eb	-0.24758117
144	0xbd6d6bba	-0.057964064
145	0x3d8e96a0	0.06962323
146	0x3e349ad7	0.17637192
147	0x3e8ac83c	0.27105892
148	0x3ea89ccd	0.3293213
149	0xbe74c4b4	-0.23903161
150	0x3db31985	0.08745102
151	0xbe22f893	-0.15915136
152	0xbca6ac6c	-0.020345889
153	0xbe819325	-0.25307575
154	0x3e9b7406	0.30361956
155	0xbe79a41e	-0.24379012
156	0x3e35ee47	0.17766677
157	0x3e01a930	0.12662196
158	0x3e00bb2d	0.12571402
159	0xbe390103	-0.18066792
160	0x3e93ede3	0.2889243
161	0x3da501d1	0.08056987

node_embedding.bias f4 [18]
0	0x3d2c290f	0.042031344
1	0xbe9adc13	-0.30246028
2	0x3e11fbb1	0.14256169
3	0xbd6b99e0	-0.057519794
4	0xbe151eae	-0.14562485
5	0x3e96f1b1	0.2948127
6	0x3da6782a	0.08128388
7	0xbe4409b3	-0.19144325
8	0xbe2ca14c	-0.16858405
9	0xbc6a6e09	-0.014308461
10	0x3e4c7677	0.19967066
11	0xbddf364a	-0.10899027
12	0xbe44b441	-0.19209386
13	0xbdf064c5	-0.1173797
14	0xbe7fd9ec	-0.24985474
15	0x3df0e646	0.11762671
16	0x3e84bb9b	0.25924382
17	0xbea18ebb	-0.31554207

edge_embedding.weight f4 [6, 3]
0	0x3e14a7cb	0.14517133
1	0x3e98b4cd	0.2982544
2	0x3e08b321	0.13349582
3	0xbe50cc0a	-0.20390335
4	0x3e9a49b0	0.30134344
5	0x3ea64d26	0.32480735
6	0x3e5cc1ba	0.21558276
7	0xbdcfc67c	-0.1014528
8	0xbe260ac3	-0.16215043
9	0x3d62f477	0.05540892
10	0xbdd0e0cf	-0.10199129
11	0xbe495979	-0.19663037
12	0x3ec514a7	0.3849232
13	0x3efe0a97	0.49617454
14	0xbd5771a5	-0.052598614
15	0xbe0b2c03	-0.13591008
16	0x3c0a086f	0.008424862
17	0xbd3aa2b2	-0.045565315

edge_embedding.bias f4 [6]
0	0x3e2594b6	0.1617001
1	0x3e190990	0.14945054
2	0xbf0aaef7	-0.54173225
3	0xbe6a57cb	-0.22885053
4	0x3f014697	0.50498337
5	0x3e725a7d	0.23667331

mpnn_layers.0.edge_network.0.weight f4 [15, 6]
0	0xbc41ef14	-0.011836786
1	0xbe859681	-0.26091388
2	0xbe8066e2	-0.25078493
3	0xbebc9135	-0.36829534
4	0xbdfcaffd	-0.123382546
5	0x3e04275e	0.12905642
6	0x3e89bfb3	0.26904067
7	0x3e6141d3	0.21997766
8	0xbebfffc4	-0.3749982
9	0xbe85a6e7	-0.261039
10	0xbd740d01	-0.059582714
11	0x3ed04968	0.40681005
12	0x3d71e4e4	0.059056178
13	0xbdd88604	-0.105724365
14	0x3e2cf3be	0.16889855
15	0xbe1f39e2	-0.15549424
16	0xbe874a9a	-0.26424104
17	0x3e989036	0.29797524
18	0xbe38c9f5	-0.1804579
19	0xbdb7691a	-0.089555934
20	0xbeccb0e5	-0.3997871
21	0x3e8b0375	0.27151075
22	0x3ea12e4b	0.3148063
23	0x3e1241f1	0.14282967
24	0xbe92e727	-0.2869198
25	0xbeccb7af	-0.3998389
26	0xbeabe975	-0.3357655
27	0x3e98bdd1	0.29832318
28	0x3e468f13	0.19390516
29	0x3eb1c5bf	0.3472118
30	0x3e5b0079	0.21386899
31	0x3dd39bc5	0.10332445
32	0xbb830060	-0.0039978474
33	0xbe9ef69e	-0.3104753
34	0xbeb315d0	-0.3497758
35	0xbec3826f	-0.3818545
36	0x3e275d9c	0.16344303
37	0xbe40d12c	-0.18829793
38	0xbdbfcc9a	-0.093651965
39	0xbe8228e3	-0.2542182
40	0xbda393a5	-0.07987145
41	0xbe8f42a8	-0.27980542
42	0xbe889439	-0.26675585
43	0x3e0aaba4	0.13542038
44	0xbdf87bd2	-0.12132992
45	0x3e8109fc	0.2520293
46	0xbe061ce7	-0.13096963
47	0xbe995520	-0.29947758
48	0xbd8df567	-0.069315724
49	0xbe4cea08	-0.20011151
50	0xbdf79604	-0.1208916
51	0xbec4c32a	-0.38430148
52	0x3e6c4d4c	0.23076361
53	0xbe93f541	-0.2889805
54	0x3e5612c9	0.20905603
55	0x3e3469bd	0.17618461
56	0x3e989dd8	0.29807925
57	0xbe98085b	-0.29693875
58	0x3e992c06	0.299164
59	0xbe49c701	-0.1970482
60	0x3e1b1fc4	0.15148836
61	0x3ec44bf4	0.38339198
62	0xbd6bd4d5	-0.05757602
63	0xbb4ee896	-0.0031571737
64	0xbdc07e7b	-0.09399124
65	0xbeae87f5	-0.34088102
66	0x3e5744a3	0.21022277
67	0xbedcd038	-0.43127608
68	0x3e8cbdde	0.27488607
69	0x3ea37fb6	0.31933373
70	0x3ecc9970	0.39960814
71	0xbdf6d1c7	-0.120517306
72	0xbeabbdff	-0.33543393
73	0x3dbbfa9a	0.09178658
74	0x3e66f0af	0.22552751
75	0xbed00ae5	-0.40633312
76	0xbdbdc783	-0.092665695
77	0xbe7a99a2	-0.24472669
78	0xbd12416c	-0.035706922
79	0xbe4dc49c	-0.20094532
80	0xbe2ae23e	-0.16687867
81	0xbe04b666	-0.12960204
82	0xbec6a2b2	-0.38796002
83	0x3eab814b	0.3349708
84	0x3eaf3b0a	0.3422473
85	0xbd832834	-0.064041525
86	0xbd3e6e90	-0.04649216
87	0xbe2a9cee	-0.16661426
88	0xbebcc2d2	-0.36867386
89	0xbecb68e2	-0.39728457

mpnn_layers.0.edge_network.0.bias f4 [15]
0	0x3e225247	0.15851699
1	0xbe5d9cfa	-0.21641913
2	0xbe86604c	-0.26245344
3	0xbcdeedd5	-0.027213017
4	0xbe05ec7b	-0.13078491
5	0xbe073f25	-0.13207681
6	0x3c8acf9e	0.016944703
7	0xbdb1587a	-0.08659454
8	0xbe1549e4	-0.14578968
9	0xbe43729a	-0.19086686
10	0xbeaa1bd7	-0.33224365
11	0x3eae4597	0.34037468
12	0xbe274bf7	-0.16337572
13	0x3ddd8c20	0.10817742
14	0xbe110c3d	-0.14164825

mpnn_layers.0.edge_network.2.weight f4 [15, 15]
0	0x3ccb28f2	0.024799798
1	0x3e8d3922	0.2758265
2	0x3df3a04c	0.118958086
3	0xbe662ed0	-0.22478795
4	0x3dc33064	0.09530714
5	0x3e7af9c6	0.24509344
6	0x3d8a70f9	0.06759829
7	0x3e3141e4	0.17310292
8	0x3e806e39	0.25084093
9	0xbd32e9c8	-0.043679982
10	0x3d5b8189	0.05359033
11	0xbe3d0724	-0.18459755
12	0xbd59f18d	-0.053208876
13	0x3e43cea1	0.19121791
14	0x3e078a95	0.13236459
15	0xbe274e82	-0.16338542
16	0xbe5403d2	-0.20704582
17	0xbe34adab	-0.17644374
18	0xbe82768d	-0.25481072
19	0xbe4c049c	-0.19923633
20	0xbd82c4cb	-0.063851915
21	0x3e326f42	0.17425254
22	0x3d310543	0.04321791
23	0xbe4919cd	-0.19638748
24	0xbe541ac2	-0.20713332
25	0x3e0387c2	0.12844756
26	0xbe44ab1d	-0.192059
27	0xbd0237ac	-0.031791374
28	0x3dfdaa16	0.12385957
29	0xbdf4bb23	-0.11949756
30	0xbce6a32e	-0.028153982
31	0xbcb81d0c	-0.022474788
32	0xbd7a34da	-0.06108556
33	0xbe060e9e	-0.13091514
34	0xbe6bb143	-0.23016839
35	0xbe55b9e1	-0.20871688
36	0xbe0d92e1	-0.13825561
37	0x3e7f5d01	0.24937822
38	0xbdff69fb	-0.12471386
39	0xbe318c91	-0.17338778
40	0x3d802d0b	0.06258591
41	0x3d91bd88	0.07116228
42	0x3e10dd6e	0.14146969
43	0x3e48f8f8	0.19626224
44	0x3e133c30	0.14378428
45	0xbe831304	-0.25600445
46	0x3cbb9751	0.022899302
47	0x3e202892	0.15640476
48	0xbcc37ec1	-0.023864152
49	0xbe1bcd88	-0.15215123
50	0x3e7c0f15	0.24615128
51	0xbdc5c85e	-0.09657358
52	0xbe168840	-0.14700413
53	0xbe6e5e04	-0.23278052
54	0x3c3cf635	0.01153331
55	0x3dea5330	0.11441648
56	0x3d6a1c07	0.057155635
57	0x3d5122fe	0.05105876
58	0xbe4883ac	-0.19581479
59	0xbe76ea6e	-0.24112865
60	0xbd4dc8b9	-0.050240252
61	0x3e5fb6e9	0.21847118
62	0x3e188917	0.14896046
63	0xbe1b9cbf	-0.15196513
64	0xbcf0ca14	-0.029393233
65	0xbe42e87c	-0.19033998
66	0xbdee6e43	-0.116421245
67	0x3d3f86c6	0.04675939
68	0x3e191f38	0.14953315
69	0x3e653f94	0.22387534
70	0xbe72be46	-0.23705396
71	0x3e39a8d1	0.18130805
72	0xbe3a79e6	-0.18210563
73	0x3dc603d9	0.09668703
74	0x3e5fbe5b	0.21849959
75	0x3c8304fd	0.01599359
76	0x3e68834c	0.22706336
77	0xbe61475a	-0.21999875
78	0xbdbb87b6	-0.09156744
79	0x3e2cca5e	0.16874072
80	0xbd6669cb	-0.056253236
81	0xbd757656	-0.059927307
82	0xbddc6555	-0.10761515
83	0x3e303d0e	0.1721079
84	0x3dec119f	0.115267985
85	0x3da97383	0.08273985
86	0xbe15ad66	-0.14616928
87	0xbe569f81	-0.20959283
88	0x3ce4c70f	0.02792695
89	0x3d9cab70	0.076498866
90	0xbdf42634	-0.11921349
91	0xbd93f45f	-0.072243445
92	0x3e329075	0.17437918
93	0x3ca87e52	0.020568047
94	0x3c3edd8f	0.011649503
95	0xbd8222c6	-0.06354289
96	0xbe6f6f1a	-0.23382226
97	0xbe789999	-0.24277343
98	0xbdfcc52d	-0.12342296
99	0xbe0665e2	-0.13124803
100	0x3da4bf31	0.08044279
101	0xbd99efd5	-0.075164475
102	0xbdcedff7	-0.10101312
103	0x3e7c152c	0.24617451
104	0x3db830ab	0.08993658
105	0x3e40200f	0.1876223
106	0xbe194cbf	-0.14970683
107	0xbdd7fe64	-0.10546568
108	0x3dc0d4fc	0.094156235
109	0xbe291d1b	-0.16515009
110	0xbe2cd626	-0.16878566
111	0xbc98fef6	-0.018676262
112	0xbdc1693c	-0.094439
113	0xbe4bd5dc	-0.199058
114	0x3e162c66	0.14665374
115	0x3e549dff	0.20763396
116	0x3d1a230f	0.03763109
117	0xbd3823a1	-0.044955853
118	0xbe74e70e	-0.23916265
119	0xbdc09b35	-0.094046034
120	0x3d869f67	0.06573372
121	0x3df9576a	0.12174876
122	0xbd05b26d	-0.032640863
123	0xbdd10f24	-0.10207966
124	0x3e135402	0.14387515
125	0xbe52908b	-0.20562951
126	0x3e271a52	0.16318634
127	0xbdcd25ab	-0.1001695
128	0x3b817e6a	0.0039518373
129	0xbd50febf	-0.051024195
130	0x3d00385f	0.03130376
131	0xbd9fccc6	-0.07802729
132	0x3e403fcc	0.18774337
133	0xbbdbf403	-0.006712438
134	0x3e4e631a	0.20154992
135	0x3e815ea4	0.25267518
136	0xbe04d226	-0.1297079
137	0xbe40e109	-0.18835844
138	0x3e57624b	0.2103359
139	0x3e507cea	0.20360151
140	0xbe49e0eb	-0.19714706
141	0xbc9117b8	-0.017711505
142	0xbe825d1f	-0.2546167
143	0xbe566312	-0.2093623
144	0x3d537c46	0.05163219
145	0x3d8cad42	0.06868984
146	0x3d691450	0.056904137
147	0xbd8feb18	-0.070272624
148	0x3e73ecf1	0.23820855
149	0x3d173604	0.036916748
150	0xbe2694f9	-0.16267766
151	0xbc47338e	-0.012158288
152	0x3d7df931	0.062005226
153	0x3dbdded5	0.092710175
154	0xbe3cc0dd	-0.18432947
155	0x3dc62f7c	0.09677026
156	0xbdfafa29	-0.122547455
157	0xbe5bb270	-0.21454787
158	0xbe05effb	-0.13079827
159	0x3e8591b2	0.2608772
160	0x3e62054c	0.22072333
161	0x3e757f3c	0.23974317
162	0x3e1b3406	0.15156564
163	0x3e47bcd2	0.19505623
164	0xbd0d8ea2	-0.034559853
165	0xbe117a55	-0.14206822
166	0x3e041b66	0.12901077
167	0xbe090159	-0.1337942
168	0xbe326e7d	-0.1742496
169	0xbda8dc6f	-0.08245169
170	0x3d5df189	0.054185424
171	0x3e081c28	0.13291991
172	0xbdcd6327	-0.100286774
173	0xbe1b9d48	-0.15196717
174	0x3d0ea91a	0.034829237
175	0xbe1bd7f5	-0.152191
176	0xbe2c2348	-0.16810334
177	0x3e09d116	0.13458666
178	0xbd31a859	-0.04337344
179	0x3e7199cd	0.23593827
180	0x3e725c36	0.23667988
181	0x3daa98d0	0.08329928
182	0x3db5fcd4	0.08886114
183	0x3d67503d	0.056473006
184	0xbbd9b500	-0.0066438913
185	0xbc99d756	-0.018779438
186	0x3c65e2f0	0.014031157
187	0x3dc576ba	0.09641786
188	0x3e8058a7	0.25067636
189	0xbd5a59bb	-0.05330823
190	0xbddf8748	-0.10914475
191	0xbd5e4666	-0.054266356
192	0xbdff78cf	-0.12474214
193	0x3d33d479	0.0439038
194	0x3e455b93	0.19273214
195	0x3e404012	0.18774441
196	0x3e12754a	0.14302555
197	0xbe4293bd	-0.1900167
198	0xbe207439	-0.15669335
199	0xbdb39b36	-0.087698385
200	0xbd42f022	-0.04759229
201	0x3c523ff8	0.012832634
202	0xbe72b52a	-0.23701921
203	0x3d87cd97	0.0663101
204	0xbe4b26db	-0.19839041
205	0xbe274b82	-0.16337398
206	0xbe70f406	-0.23530588
207	0x3e665f86	0.22497377
208	0xbe7a5de5	-0.2444988
209	0x3e477388	0.19477665
210	0xbc65a564	-0.014016483
211	0xbd9ac7f4	-0.07557669
212	0x3e255fb2	0.16149786
213	0xbce867e1	-0.028369846
214	0x3e26c879	0.16287412
215	0x3e3f297a	0.18668166
216	0xbe68300e	-0.22674581
217	0x3dcb786e	0.099350795
218	0x3d3e0c1d	0.04639827
219	0x3d5b5e9c	0.053557023
220	0x3d1a65e4	0.037694827
221	0x3d8cf89e	0.068833575
222	0xbdfe624b	-0.12421092
223	0xbd074eee	-0.033034258
224	0x3e7b3525	0.24531992

mpnn_layers.0.edge_network.2.bias f4 [15]
0	0x3e323538	0.17403114
1	0xbc1eed4d	-0.009700132
2	0xbe78ac1b	-0.24284403
3	0x3c3967ed	0.011316282
4	0xbe3e23df	-0.18568371
5	0x3e5e4d18	0.21709096
6	0xbe2082e2	-0.15674928
7	0xbca20fcf	-0.019782929
8	0xbd6ab903	-0.057305347
9	0x3d4dea33	0.050272178
10	0x3e78935e	0.24274966
11	0x3cc8fb3a	0.024533857
12	0x3e13eaac	0.14444989
13	0x3e3d2e3c	0.18474668
14	0x3e4f4484	0.2024098

mpnn_layers.0.edge_network.4.weight f4 [324, 15]
0	0xbdbf1bc8	-0.09331471
1	0xbd6c8910	-0.0577479
2	0x3dfed832	0.1244358
3	0xbd904a41	-0.07045413
4	0x3e032af9	0.12809362
5	0xbd843d6e	-0.06457029
6	0xbe3353b5	-0.175124
7	0x3de00378	0.109381616
8	0x3d222581	0.039586548
9	0x3def23f1	0.11676777
10	0x3e855e9c	0.26048744
11	0x3e3482fa	0.17628089
12	0x3e769312	0.2407954
13	0x3c832dd2	0.01601306
14	0xbe610362	-0.21973947
15	0xbe39508d	-0.18097134
16	0xbe243c53	-0.16038637
17	0xbe68ff8d	-0.22753735
18	0xbe048715	-0.12942155
19	0xbe787929	-0.24264969
20	0xbe69638d	-0.22791882
21	0xbe1dfda7	-0.15428792
22	0xbe7d8f5e	-0.24761721
23	0xbe224a13	-0.1584857
24	0x3dd8ffd6	0.10595672
25	0x3e65477f	0.22390555
26	0xbd9d4bb7	-0.07680457
27	0xbd87ccfe	-0.06630896
28	0x3e0556e9	0.13021435
29	0xbdf2d3b1	-0.11856783
30	0xbdee96b6	-0.116498396
31	0x3e22e6e8	0.15908396
32	0xbe665e4e	-0.22496912
33	0x3d0150cf	0.031571206
34	0x3e624607	0.22097026
35	0x3d53fad0	0.051752865
36	0x3d8fcd31	0.07021559
37	0xbe1eb500	-0.15498734
38	0xbb6974c8	-0.0035622586
39	0x3c36b3d1	0.01115127
40	0x3d717d35	0.058957297
41	0x3dcd75b2	0.10032214
42	0x3e687c17	0.22703587
43	0xbe4b3acf	-0.19846652
44	0x3b93d9ce	0.0045120483
45	0xbdf3096b	-0.11867031
46	0xbe512764	-0.20425183
47	0xbca960a1	-0.020675959
48	0xbe68bb16	-0.22727618
49	0x3e33d081	0.17560007
50	0x3d1b60bf	0.03793406
51	0xbe0e7f88	-0.13915837
52	0x3e079c53	0.13243227
53	0xbe7a3b40	-0.24436665
54	0xbdd20e0c	-0.102565855
55	0xbd579163	-0.052628886
56	0xbe60ab98	-0.21940458
57	0xbe258166	-0.16162643
58	0xbd27f743	-0.04100729
59	0x3e46c880	0.19412422
60	0x3e715b66	0.23570022
61	0x3e28399b	0.16428225
62	0xbe1de082	-0.15417674
63	0xbe2cf926	-0.16891918
64	0x3e6db2cb	0.23212735
65	0x3da4cc14	0.08046737
66	0x3be0c7c1	0.00685975
67	0x3d22bc74	0.039730504
68	0xbe547e72	-0.2075136
69	0xbda90511	-0.082529195
70	0x3e81c1a7	0.25343058
71	0xbd826abf	-0.063680165
72	0xbc8843e9	-0.016633945
73	0xbe623d3b	-0.2209367
74	0xbe0fe932	-0.140538
75	0x3ca15eba	0.01969849
76	0xbe243b5b	-0.16038267
77	0xbd032681	-0.032019142
78	0x3dd7324d	0.10507641
79	0xbe7e1385	-0.24812134
80	0x3dc98af7	0.098409586
81	0xbe2ed211	-0.17072321
82	0xbddf4bb3	-0.1090311
83	0x3dcb0214	0.09912506
84	0x3e62dba8	0.22154105
85	0xbd525494	-0.05135019
86	0xbdd91af9	-0.10600848
87	0xbe5bf1d5	-0.2147897
88	0xbdf7aea4	-0.12093857
89	0xbe548d19	-0.2075695
90	0xbd81de77	-0.0634126
91	0x3d57ce34	0.052686885
92	0xbe77b4b4	-0.24190027
93	0x3e66d8f1	0.22543694
94	0x3e2c6883	0.16836743
95	0xbe844fb7	-0.25842068
96	0xbdfc9175	-0.12332431
97	0x3db59779	0.08866782
98	0xbd594a5e	-0.053049438
99	0xbcc70c3b	-0.024297824
100	0xbde61eb5	-0.11236326
101	0x3e545e26	0.2073904
102	0xbe14ea4d	-0.14542504
103	0x3e5eb7f3	0.21749859
104	0x3ca4a156	0.020096462
105	0x3d68a538	0.05679819
106	0x3e4e4373	0.20142917
107	0xbd2e40d4	-0.042542294
108	0xbe16882b	-0.14700381
109	0xbd28b44b	-0.041187566
110	0x3e5d470a	0.2160913
111	0xbe442da1	-0.19158031
112	0x3d8246fb	0.06361195
113	0xbe81ec43	-0.25375566
114	0x3e0c291b	0.13687555
115	0x3dd0305e	0.10165475
116	0x3c335550	0.010945633
117	0x3dea3c82	0.11437322
118	0xbba01c85	-0.0048862123
119	0x3e1701ed	0.14746828
120	0xbe4c99b6	-0.19980511
121	0xbd1b4f04	-0.037917152
122	0x3dea945d	0.11454079
123	0x3e83a513	0.2571188
124	0x3e005f02	0.12536243
125	0xbe583943	-0.21115594
126	0x3e4b588b	0.19857995
127	0xbda50ba3	-0.0805886
128	0xbd61cf26	-0.055129193
129	0xbe85ec0f	-0.2615666
130	0xbd853728	-0.06504661
131	0x3e3b039e	0.18263099
132	0x3c28638c	0.01027764
133	0xbe147bbc	-0.14500326
134	0x3d59b937	0.05315515
135	0xbd9c1975	-0.07622043
136	0x3e716444	0.23573405
137	0xbe657bc2	-0.22410491
138	0xbda70841	-0.08155871
139	0xbe8304d0	-0.2558961
140	0xbdbd98f6	-0.092576906
141	0x3da6b342	0.081396595
142	0x3e7b2cd1	0.24528815
143	0x3d319dfc	0.043363556
144	0x3e81224c	0.2522148
145	0x3d4340f7	0.047669377
146	0x3e18b2b1	0.14911915
147	0x3e5894e3	0.21150546
148	0x3e5c2ee3	0.21502261
149	0xbe154ce2	-0.1458011
150	0x3e6ee343	0.23328881
151	0x3e202969	0.15640797
152	0xbdf74071	-0.12072838
153	0xbdfc574c	-0.12321338
154	0xbe560f5f	-0.20904301
155	0x3d6c997c	0.05776356
156	0xbe564e43	-0.20928292
157	0x3de90975	0.11378757
158	0x3da6fdb7	0.08153861
159	0xbe62c2c8	-0.22144616
160	0x3d99393f	0.07481622
161	0xbcac070c	-0.020999454
162	0x3dec11e3	0.11526849
163	0x3e1a870e	0.15090582
164	0xbe81d29b	-0.25355992
165	0x3e77c622	0.24196675
166	0x3e5dbbba	0.21653643
167	0x3dd265bd	0.10273311
168	0xbe71a5b8	-0.23598373
169	0xbdcb73c9	-0.09934194
170	0xbd87e134	-0.06634751
171	0xbd87e5f6	-0.066356584
172	0x3e10e72a	0.14150682
173	0x3dc040c2	0.093873516
174	0x3e4fd5d2	0.2029641
175	0xbdcdb12a	-0.10043557
176	0x3db1f594	0.086894184
177	0x3dc45665	0.09586791
178	0xbe5ddf03	-0.21667103
179	0xbe815646	-0.25261134
180	0xbe05aec6	-0.13054952
181	0x3e34fdce	0.17674944
182	0xbe78eaf8	-0.24308383
183	0xbe662390	-0.22474504
184	0x3e0c8774	0.13723546
185	0x3e19ccdc	0.15019554
186	0x3e596fe3	0.21234088
187	0xbe497503	-0.19673543
188	0xbe4182d8	-0.18897569
189	0x3e0b0495	0.13575967
190	0x3e6527c8	0.22378457
191	0x3e1e32bd	0.15449043
192	0x3d45056c	0.048100874
193	0x3da7f1aa	0.08200391
194	0x3e7d08bf	0.24710368
195	0xbe24d1fd	-0.16095729
196	0xbdf013d7	-0.11722534
197	0x3e38ef9f	0.18060158
198	0xbe34e8f5	-0.17666991
199	0xbe18e764	-0.14932019
200	0x3e49241a	0.19642678
201	0x3da6d868	0.08146745
202	0x3da21060	0.079132795
203	0xbde01f85	-0.10943512
204	0xbbc51d5e	-0.0060154637
205	0x3e6dd789	0.23226751
206	0xbe1eb212	-0.15497616
207	0x3bad10ff	0.005281567
208	0x3df8c5da	0.12147112
209	0xbe39571b	-0.18099634
210	0x3e80a69c	0.25127113
211	0xbe041849	-0.12899889
212	0xbd7df6b5	-0.062002856
213	0xbd8f1341	-0.06986094
214	0xbe34fe90	-0.17675233
215	0xbe7a845a	-0.2446455
216	0x3e151475	0.14558585
217	0x3d86610d	0.0656148
218	0xbe77a219	-0.24182929
219	0xbe285a1b	-0.16440623
220	0x3e81a73e	0.25322908
221	0x3dca1f61	0.09869266
222	0x3de00a1e	0.1093943
223	0xbe2449f0	-0.1604383
224	0xbde66df6	-0.11251442
225	0xbd0a69c8	-0.033792287
226	0xbd41691f	-0.047219392
227	0xbe352d3c	-0.17693037
228	0x3cae41fd	0.0212717
229	0x3c9ab784	0.018886335
230	0xbcda1729	-0.026622372
231	0x3d129d57	0.035794582
232	0xbddb4ec0	-0.1070838
233	0x3d899e73	0.06719675
234	0x3dbf02fa	0.093267396
235	0xbe0fff96	-0.14062342
236	0xbe8315a8	-0.2560246
237	0x3e0bb10f	0.13641761
238	0x3d72f716	0.05931767
239	0xbe0a601a	-0.13513222
240	0x3e79fc24	0.2441259
241	0xbdef2512	-0.116769925
242	0x3e32aa1e	0.17447707
243	0x3e0622ad	0.13099165
244	0xbe5634c0	-0.2091856
245	0x3e253ab6	0.16135678
246	0xbe731acb	-0.2374069
247	0xbe0ca59b	-0.13735048
248	0xbd305096	-0.043045603
249	0xbe2c7901	-0.16843034
250	0x3e840b3a	0.25789815
251	0xbd54212a	-0.05178944
252	0x3dd1be71	0.10241402
253	0xbe69b1ec	-0.22821778
254	0x3e1d6ecb	0.15374295
255	0xbd9bfb52	-0.07616295

mpnn_layers.0.edge_network.4.bias f4 [324]
0	0x3e675911	0.2259257
1	0x3d9eb11b	0.07748624
2	0xbe3e1349	-0.18562044
3	0x3e115224	0.1419149
4	0x3c5ae2c4	0.013359729
5	0x3e8b0740	0.2715397
6	0xbb98eade	-0.00466667
7	0x3a82990a	0.0009963822
8	0xbe8d3beb	-0.27584776
9	0xbe57d440	-0.2107706
10	0x39b9cdbf	0.00035439242
11	0x3e622d57	0.22087608
12	0xbe1d3d79	-0.15355481
13	0x3d52f394	0.051501825
14	0xbe31a0c2	-0.1734648
15	0xbe4da526	-0.2008253
16	0xbdbe352a	-0.09287484
17	0xbe2f02f9	-0.17090978
18	0xbe4f95e7	-0.20272027
19	0xbdbfd7c1	-0.09367324
20	0xbd3774e1	-0.0447892
21	0x3dfaf556	0.12253825
22	0x3df76661	0.12080074
23	0x3c5fa6f0	0.013650641
24	0xbd44ae9e	-0.04801809
25	0xbd86de69	-0.0658539
26	0xbe5afa3b	-0.21384518
27	0x3e2ec58b	0.17067544
28	0x3e7a0189	0.24414648
29	0xbe7c80dd	-0.24658532
30	0xbe835b3c	-0.25655544
31	0xbe80ea11	-0.25178578
32	0xbd65ff15	-0.05615147
33	0xbc4347d9	-0.011918985
34	0xbe214ac1	-0.15751173
35	0x3e04cf1a	0.12969628
36	0x3c880775	0.016605118
37	0xbe0b6d33	-0.13615875
38	0xbe7c5ec2	-0.24645522
39	0x3e5208c4	0.20511156
40	0x3e819526	0.25309104
41	0x3bba3a8c	0.005683249
42	0xbe0406ed	-0.12893267
43	0x3e2f1e0a	0.17101303
44	0x3e420c3a	0.18949977
45	0xbd116d88	-0.035504848
46	0x3e748f2b	0.23882739
47	0xbe41fb28	-0.18943465
48	0xbd09b802	-0.03362275
49	0x3e62a5ac	0.22133511
50	0xbe24d339	-0.160962
51	0xbd97718b	-0.073947035
52	0xbded4dbf	-0.115870945
53	0xbdd2bf6d	-0.10290418
54	0x3e6d7681	0.23189737
55	0x3e162447	0.14662276
56	0xbe721771	-0.23641755
57	0xbe229ca9	-0.15880074
58	0xba439b1e	-0.0007461774
59	0xbde5c4c2	-0.11219169
60	0xbe12ca07	-0.1433488
61	0xbe8069bb	-0.25080666
62	0x3e75fc76	0.24022087
63	0x3e100f95	0.14068444
64	0x3d9d7226	0.07687788
65	0xbd7cd2ca	-0.06172446
66	0xbe851f96	-0.2600066
67	0xbc994bd0	-0.018712908
68	0x3dbbf0b1	0.091767676
69	0xbd97e388	-0.07416445
70	0x3e4e583e	0.20150849
71	0x3d674448	0.056461602
72	0xbc2d3018	-0.0105705485
73	0x3dc4e9fd	0.09614942
74	0x3e04b495	0.12959512
75	0xbe4a4151	-0.19751479
76	0x3d9ff928	0.07811195
77	0xbe68c72c	-0.22732228
78	0xbd3ba661	-0.04581297
79	0xbdcdd6a9	-0.10050709
80	0x3e366e5a	0.17815533
81	0xbe816942	-0.25275618
82	0x3dc938cd	0.09825287
83	0xbe73e92e	-0.2381942
84	0x3de6c8a8	0.11268741
85	0x3d715781	0.05892134
86	0xbdd55535	-0.104166426
87	0x3d8b34e5	0.06797198
88	0x3e839d31	0.25705865
89	0x3e19c48b	0.15016381
90	0xbe691dd2	-0.22765282
91	0xbda026d2	-0.078199044
92	0x3e6aa197	0.22913204
93	0x3d24ac61	0.040203456
94	0x3d1fd714	0.039023474
95	0x3c06afdd	0.00822064
96	0xbdb67b3e	-0.08910225
97	0xbd89069d	-0.066907145
98	0x3d29066f	0.0412659
99	0x3e40d44a	0.18830982
100	0xbd8a02e2	-0.06738831
101	0xbd989ab8	-0.07451385
102	0x3d16de0d	0.036832858
103	0xbdcd4cd4	-0.100244194
104	0x3e5aa018	0.21350133
105	0x3e43fab1	0.191386
106	0x3c454b9f	0.012041955
107	0xbe304852	-0.17215088
108	0x3d9580a0	0.07299924
109	0x3e64b3de	0.22334239
110	0x3da91100	0.082551956
111	0x3dd734a2	0.10508086
112	0xbe09cb72	-0.13456514
113	0xbe7e0b1a	-0.24808922
114	0xbdbf45e3	-0.09339502
115	0x3b4ef7d6	0.0031580827
116	0x3e4b0042	0.19824317
117	0x3d56a845	0.052406568
118	0xbd3929b0	-0.045205772
119	0xbd88278b	-0.06648167
120	0xbd44fcf2	-0.04809279
121	0xbe102225	-0.14075525
122	0xbddce14c	-0.107851595
123	0x3d36c5f7	0.044622388
124	0x3e37390f	0.1789286
125	0x3e5ece47	0.21758376
126	0x3dc802cb	0.09766158
127	0xbe2ff1d0	-0.17182088
128	0x3e710152	0.2353566
129	0x3e788dde	0.24272868
130	0xbd9a5d3a	-0.07537313
131	0x3cf54bad	0.029943312
132	0x3e777b6e	0.24168178
133	0xbddd8e48	-0.108181536
134	0x3d8f1a0a	0.069873884
135	0x3d29133b	0.041278105
136	0x3e16782a	0.14694276
137	0x3db6f0ee	0.089326724
138	0x3e867fb4	0.26269305
139	0x3e5dcb08	0.21659482
140	0xbe3267d4	-0.1742242
141	0x3e170e37	0.14751516
142	0xbd368718	-0.04456243
143	0xbe0e07f5	-0.13870223
144	0x3d2af122	0.04173387
145	0xbce076e6	-0.027400445
146	0xbe2caa50	-0.16861844
147	0xbe6b2093	-0.22961645
148	0xbe12c33b	-0.14332287
149	0x3d4037d9	0.04692826
150	0x3e235627	0.15950833
151	0x3e1b0d03	0.15141682
152	0x3d389bf7	0.045070615
153	0x3e7c08fa	0.246128
154	0xbe61fe43	-0.2206965
155	0xbe24dbf3	-0.16099529
156	0x3df196aa	0.11796315
157	0xbe70d75f	-0.23519658
158	0x3e7e188b	0.2481405
159	0x3d052d02	0.032513626
160	0xbdbd502e	-0.09243809
161	0x3e6bbc74	0.23021108
162	0x3dfa2c17	0.12215441
163	0x3e60d185	0.21954925
164	0x3e4274be	0.18989846
165	0xbd5680e7	-0.052369025
166	0x3e6fb1b4	0.23407632
167	0x3d4a349b	0.049366575
168	0x3d0a83a7	0.03381696
169	0x3da94f59	0.082670875
170	0xbe67f76f	-0.22652982
171	0xbe208428	-0.15675414
172	0x3e7f94bb	0.2495908
173	0xbe2f1fbc	-0.1710195
174	0x3e13557a	0.14388075
175	0x3e1bc549	0.15211977
176	0xbe54ca79	-0.20780362
177	0xbd1b0c54	-0.037853554
178	0x3bf0be30	0.007346891
179	0x3e3f03f1	0.18653847
180	0xbd987899	-0.07444877
181	0x3e7a5147	0.24445067
182	0xbe5c692b	-0.21524493
183	0x3ddf182a	0.10893281
184	0x3e0f2356	0.13978323
185	0xbd8eff75	-0.06982318
186	0xbdad63ad	-0.08466277
187	0xbe25f5e8	-0.16207087
188	0x3d17938b	0.037005942
189	0x3db8fe8c	0.09032926
190	0xbdbcb896	-0.092148945
191	0x3e598b66	0.21244583
192	0xbcf839a9	-0.030300932
193	0xbd1ba1c0	-0.037996054
194	0x3e55251a	0.20814934
195	0x3d3592d7	0.04432949
196	0x3e0f3963	0.13986735
197	0x3e1e6505	0.15468223
198	0xbe2d4931	-0.16922452
199	0x3ad3fb04	0.0016172831
200	0x3e6830ad	0.22674818
201	0xbe25c456	-0.16188177
202	0x3d056c76	0.03257414
203	0x3e4d936e	0.20075771
204	0x3d09244f	0.033481892
205	0xbd8b5806	-0.068038985
206	0x3d815353	0.06314721
207	0xbe5a60ee	-0.21326038
208	0x3e59ce3b	0.21270077
209	0x3e4f1958	0.20224512
210	0xbd8d0597	-0.06885832
211	0xbdc0acd4	-0.09407964
212	0xbd477d45	-0.04870345
213	0x3e821187	0.25403997
214	0xbdc2f199	-0.09518737
215	0x3d9cfdf9	0.07665629
216	0xbe75c382	-0.24000362
217	0x3d969fc4	0.073546916
218	0x3e19b64b	0.15010945
219	0x3d9aa326	0.07550649
220	0xbc2d3d6e	-0.010573728
221	0x3cf84148	0.030304566
222	0x3e6eb463	0.23311
223	0x3dcbb07f	0.09945773
224	0xbdb333cd	-0.087501146
225	0xbe59d4a4	-0.21272522
226	0x3e475aad	0.19468184
227	0xbdcffa97	-0.10155218
228	0x3e226d96	0.15862116
229	0xbd6d45c7	-0.057927873
230	0xb94a6a36	-0.00019303788
231	0xbe5953e6	-0.21223411
232	0xbdb8919e	-0.09012149
233	0x3c613454	0.013745386
234	0xbe800a8f	-0.25008056
235	0xbd386507	-0.045018222
236	0x3e18d63d	0.14925475
237	0x3e3ae2e9	0.18250622
238	0x3e44a337	0.19202887
239	0xbd79f80b	-0.061027568
240	0x3ca7f9bc	0.020504825
241	0xbe4fe595	-0.20302422
242	0x3de39bd3	0.111137055
243	0x3d3f41a5	0.046693463
244	0x3e5ebdb7	0.21752058
245	0xbd21604c	-0.039398476
246	0x3e80b126	0.25135154
247	0x3e02b9ad	0.12766142
248	0x3e63ee7a	0.2225894
249	0xbc976f59	-0.018485712
250	0xbe4cb716	-0.19991717
251	0xbe4efa38	-0.20212638
252	0xbe754db7	-0.23955427
253	0x3d1f42ab	0.03888194
254	0xbe4f5636	-0.2024773
255	0xbdabf659	-0.083965965

mpnn_layers.0.cell.weight_ih f4 [54, 18]
0	0x3cbb7caf	0.022886602
1	0xbdec498a	-0.11537464
2	0x3e5f5755	0.21810658
3	0xbda50abb	-0.08058687
4	0x3e16e211	0.14734675
5	0xbd79b8d4	-0.06096728
6	0xbe2adf13	-0.16686659
7	0x3e42c8d4	0.19021922
8	0xbd5a340f	-0.053272303
9	0xbdccb053	-0.09994569
10	0x3c4980fe	0.012298821
11	0xbc106151	-0.008812265
12	0x3d855028	0.06509429
13	0xbdcfb178	-0.10141271
14	0xbd8acfdb	-0.067779265
15	0x3e077506	0.13228235
16	0x3dc8d728	0.09806663
17	0x3e56b198	0.20966184
18	0x3d459487	0.04823735
19	0xbd1c8d84	-0.038220897
20	0xbcef34eb	-0.029200038
21	0xbcc8d8ae	-0.024517383
22	0xbd819f5e	-0.06329225
23	0xbdd2c760	-0.10291934
24	0xbd0beb56	-0.03415998
25	0x3d42d331	0.04756469
26	0x3e1b259b	0.15151064
27	0x3e27d93c	0.16391462
28	0xbe80a300	-0.2512436
29	0x3e46386e	0.19357464
30	0xbcc35bfa	-0.023847569
31	0xbe90b3c5	-0.28262153
32	0x3e0f09c9	0.13968576
33	0xbde75e0f	-0.11297237
34	0xbde5fac2	-0.11229469
35	0x3d4afe51	0.04955894
36	0x3d03d6fa	0.03218744
37	0x3e1a7608	0.15084088
38	0xbe3162e4	-0.1732288
39	0x3dfccd6b	0.12343868
40	0x3d9610fe	0.0732746
41	0x3e183cb9	0.14866914
42	0xbd98a627	-0.07453566
43	0x3d1f87e5	0.03894796
44	0x3d993b32	0.07481994
45	0x3e5bdb2b	0.21470325
46	0xbe1260df	-0.14294766
47	0xbe65fee6	-0.22460517
48	0xbe5e5ff4	-0.2171629
49	0x3ce6d85c	0.02817934
50	0xbe4a0700	-0.19729233
51	0xbd92898b	-0.071551405
52	0xbe120028	-0.14257872
53	0x3d53f7a4	0.05174984
54	0xbe19bea1	-0.15014125
55	0x3e271a2b	0.16318576
56	0xbe5d0dd8	-0.21587312
57	0xbde9fbc2	-0.11424972
58	0x3d8da793	0.06916728
59	0xbe7c218b	-0.2462217
60	0x3d5e591a	0.054284193
61	0xbdc90105	-0.098146476
62	0xbdc9cce3	-0.09853532
63	0x3e304ef1	0.17217614
64	0xbdb58b09	-0.088644095
65	0x3d89c60b	0.06727227
66	0xbd983074	-0.07431117
67	0x3dc23c8d	0.094842054
68	0x3e646b41	0.22306539
69	0x3e7e44e6	0.2483097
70	0xbe04407b	-0.12915222
71	0xbe816db1	-0.25279
72	0xbe0f71a9	-0.14008202
73	0x3dd69043	0.104767345
74	0x3e097202	0.13422397
75	0x3e21cbb9	0.1580037
76	0x3e127c0c	0.14305133
77	0x3e4bc432	0.19899061
78	0xbe229165	-0.15875776
79	0xbe3bcd8a	-0.18340126
80	0xbd91861a	-0.07105656
81	0x3e25a38b	0.16175668
82	0xbe5954a0	-0.21223688
83	0x3e546bb6	0.20744213
84	0x3d94091c	0.072283
85	0x3dcd1d0b	0.10015305
86	0x3e6bd4a1	0.2303033
87	0x3e8a8db4	0.27061236
88	0x3e742ab7	0.2384442
89	0xbdafbbd0	-0.08580744
90	0xbdaadeea	-0.08343299
91	0x3dc3fbf6	0.09569542
92	0x3e4823d7	0.19544922
93	0xbbbeb006	-0.0058193235
94	0xbd818a15	-0.06325165
95	0xbcff0ec0	-0.031134963
96	0xbdc3853f	-0.09546899
97	0x3dfb6901	0.12275887
98	0xbe707665	-0.23482664
99	0x3e76328b	0.24042718
100	0x3ba3dd2c	0.005000731
101	0xbe228e7e	-0.15874669
102	0xbdb97a4b	-0.09056529
103	0xbe0df10c	-0.13861483
104	0xbe3b3d87	-0.1828519
105	0x3c0651f3	0.008198249
106	0xbd4f6473	-0.050632905
107	0xbde9b85a	-0.114121154
108	0xbd79e28b	-0.061007064
109	0xbd60ee2e	-0.054914646
110	0x3da78943	0.081804775
111	0xbe58e89e	-0.21182486
112	0xbc5fe37c	-0.013665076
113	0x3c8e6f7c	0.017387144
114	0xbe56568f	-0.20931457
115	0x3e515ed5	0.20446332
116	0xbe132548	-0.1436969
117	0x3e45ddc4	0.19322878
118	0x3e4ccc79	0.19999875
119	0xbba6e2e6	-0.0050929664
120	0x3e22b4f5	0.15889342
121	0xbe143da6	-0.14476642
122	0xbd786942	-0.060647257
123	0xbe5c9bee	-0.21543857
124	0xbe0a7e2f	-0.13524698
125	0x3dc79060	0.09744334
126	0x3e4ebe34	0.20189744
127	0xbdef6aa9	-0.11690266
128	0xbd8ff0c1	-0.07028342
129	0xbde323f4	-0.11090842
130	0x3b0db732	0.0021624085
131	0xbe5e3071	-0.21698166
132	0xbe2f7081	-0.1713276
133	0xbccbdc8c	-0.024885438
134	0x3e8f4a5e	0.27986425
135	0x3d4c0536	0.049809657
136	0xbdee641d	-0.11640189
137	0x3e286598	0.16445005
138	0x3e3e2c98	0.18571699
139	0x3de58a3d	0.112080075
140	0x3d8503fd	0.06494901
141	0xbc2c0365	-0.010498856
142	0x3e233779	0.1593913
143	0x3dcd2f75	0.10018817
144	0x3e36f91b	0.17868464
145	0x3e2a0381	0.16602899
146	0xbd89be5b	-0.067257605
147	0x3e4b79cc	0.1987068
148	0x3d3bd505	0.045857448
149	0x3e7133e2	0.23554948
150	0x3e6deaaa	0.23234048
151	0x3e4a4d20	0.19755983
152	0x3e21fb43	0.15818505
153	0x3e3f9592	0.187094
154	0xbde160ed	-0.11004815
155	0xbdc4402e	-0.09582554
156	0xbd71f9b7	-0.059076037
157	0xbe06d7ab	-0.13168208
158	0x3e362551	0.17787673
159	0x3c91f6f1	0.017817946
160	0xbd74ecd5	-0.059796173
161	0xbdd0dff7	-0.10198968
162	0xbe5b4be2	-0.21415666
163	0x3ce96a4b	0.028493067
164	0x3e5b1074	0.21392995
165	0x3e20f823	0.15719657
166	0x3e5ce165	0.21570356
167	0x3e2524ed	0.16127367
168	0x3dc71d66	0.09722404
169	0xbceef982	-0.029171709
170	0xbe4de011	-0.20105006
171	0x3e39456e	0.18092892
172	0xbe2c4524	-0.1682325
173	0xbe14db4c	-0.1453678
174	0x3dd71a02	0.105030075
175	0x3d37acc5	0.0448425
176	0xbe3ab058	-0.18231332
177	0x3e4324c1	0.19056989
178	0xbe5ac995	-0.2136596
179	0x3d80c8e3	0.06288316
180	0x3e134738	0.14382637
181	0x3dc3cc4d	0.09560452
182	0xbdae0ed4	-0.08498922
183	0xbe058b37	-0.13041387
184	0x3e69d2e9	0.22834362
185	0x3ccb9ba2	0.024854485
186	0xbdb9e8bc	-0.09077594
187	0x3e84eae9	0.25960472
188	0xbdae1811	-0.08500684
189	0xbd31ab18	-0.04337606
190	0x3d0da0e7	0.034577277
191	0x3e5a592c	0.21323079
192	0xbd91af8c	-0.07113561
193	0xbd9dfe14	-0.07714477
194	0xbdf49246	-0.11941962
195	0xbd50c596	-0.050969683
196	0xbc9876ea	-0.01861139
197	0xbcd56cca	-0.026052851
198	0x3e27fef8	0.16405857
199	0xbe079ee2	-0.13244203
200	0x3e37012e	0.17871544
201	0x3e668164	0.22510296
202	0x3c229a51	0.009924487
203	0xbd776e19	-0.06040773
204	0x3dc5f185	0.09665207
205	0xbe2fac28	-0.17155516
206	0x3e3c3ce6	0.18382606
207	0xbd8c8073	-0.06860437
208	0xbd006cd3	-0.031353783
209	0x3e17b6eb	0.14815871
210	0x3e0d766c	0.13814706
211	0xbe1214d4	-0.14265758
212	0xbe27befa	-0.16381446
213	0xbe4246a6	-0.18972263
214	0xbe362b81	-0.17790033
215	0xbdb4954b	-0.08817538
216	0xbe514509	-0.20436491
217	0xbd4f6238	-0.050630778
218	0xbe215a61	-0.15757133
219	0x3dd52e8f	0.10409271
220	0x3e06a4c4	0.1314879
221	0x3e68604d	0.22692986
222	0xbe451d45	-0.19249447
223	0xbe3ca525	-0.18422373
224	0x3d289fef	0.04116815
225	0xbcc37dfb	-0.023863783
226	0x3e552146	0.20813474
227	0xbe6e91c8	-0.23297799
228	0x3e4baa29	0.1988913
229	0xbdccedc2	-0.10006286
230	0xbe539422	-0.20661977
231	0xbd4bde00	-0.049772263
232	0xbdaf0a5b	-0.08546897
233	0xbe01a77b	-0.12661545
234	0x3e08900e	0.13336203
235	0x3e3d7871	0.18502976
236	0x3e0846b0	0.13308215
237	0x3cec62f3	0.028855776
238	0xbcc3e136	-0.0239111
239	0xbe01aeaa	-0.12664285
240	0x3e604ff2	0.21905497
241	0xbe0c6eb9	-0.13714112
242	0xbe571180	-0.2100277
243	0x3e52aff9	0.2057494
244	0xbc899cca	-0.016798396
245	0x3e1f711a	0.15570489
246	0xbd98759b	-0.074443065
247	0x3e264df7	0.16240679
248	0xbe359992	-0.17734364
249	0x3e22cc0b	0.15898149
250	0x3e439782	0.19100764
251	0xbb5c330e	-0.0033599767
252	0x3e1ba4d3	0.15199594
253	0x3c65b908	0.014021166
254	0xbe5eb0d5	-0.21747144
255	0x3dbee0ea	0.09320243

mpnn_layers.0.cell.weight_hh f4 [54, 18]
0	0xbd16807b	-0.036743622
1	0x3e1ddecf	0.15417026
2	0x3e43aac0	0.19108105
3	0xbe435bb6	-0.19077954
4	0x3e2b5a86	0.1673375
5	0x3dc87921	0.097887285
6	0x3db29425	0.087196626
7	0xbe12b41a	-0.14326516
8	0xbe260904	-0.16214377
9	0x3e6d48eb	0.23172347
10	0x3d7f2c06	0.062297843
11	0xbd58965e	-0.052877776
12	0xbd28dcee	-0.04122632
13	0x3e1fe140	0.1561327
14	0xbd5c274b	-0.05374841
15	0x3e1cf387	0.15327273
16	0xbd7336d2	-0.059378453
17	0x3d629edb	0.055327278
18	0x3da57848	0.080795825
19	0xbe0d3ef3	-0.13793544
20	0xbc96b07b	-0.0183947
21	0x3cc924d1	0.024553688
22	0xbe4876b6	-0.19576535
23	0xbd832c4b	-0.064049326
24	0x3d3f8652	0.046758957
25	0x3e296385	0.1654187
26	0x3d66fda6	0.05639424
27	0xbe64e16d	-0.22351618
28	0xbd3c1a49	-0.045923505
29	0x3e57fb75	0.21092017
30	0xbd4b2d9a	-0.049604036
31	0x3e1ead6e	0.15495846
32	0x3bc8c2ac	0.0061267223
33	0x3e03d20a	0.12873092
34	0xbd9a9b73	-0.07549181
35	0x3e5698d8	0.20956743
36	0x3d24e657	0.04025873
37	0xbd1c3e01	-0.03814507
38	0x3e430fd1	0.19049002
39	0x3e052bfa	0.13005057
40	0xbe211e97	-0.15734325
41	0x3b0981d2	0.002098192
42	0x3e21c051	0.15796019
43	0x3d8f9e0d	0.07012568
44	0xbd9691c8	-0.07352024
45	0xbe131322	-0.14362767
46	0xbe33553c	-0.17512983
47	0x3e0fd6e9	0.14046825
48	0x3decd64b	0.11564311
49	0xbe4c5873	-0.19955616
50	0xbd2a11cf	-0.04152089
51	0x3d8b6fcf	0.06808435
52	0xbe61a33d	-0.22034927
53	0x3e5a1f6e	0.21301052
54	0x3ba9cf8a	0.0051822113
55	0xbe09769f	-0.13424157
56	0xbb0e3c51	-0.0021703432
57	0x3d5314a2	0.05153335
58	0x3db01db5	0.08599416
59	0x3e3ab26b	0.18232124
60	0x3e242a5c	0.16031784
61	0xbd6aff7a	-0.057372548
62	0x3da1fedd	0.079099394
63	0x3ccaf909	0.024776952
64	0xbd8aad5a	-0.067713454
65	0xbe6e5682	-0.23275188
66	0xbd73d73d	-0.05953144
67	0xbdf4aedb	-0.119474135
68	0xbe824bea	-0.25448543
69	0x3d6725a1	0.05643237
70	0xbdac6883	-0.084183715
71	0x3e4635e6	0.19356498
72	0x3def5831	0.11686743
73	0x3d9d8cef	0.076928966
74	0x3d06734e	0.032824807
75	0x3d676bc0	0.056499243
76	0x3e39a0ba	0.18127719
77	0x3e12f70e	0.14352056
78	0x3cca0511	0.024660619
79	0xbdd160c8	-0.10223538
80	0x3d371963	0.044701945
81	0xbe1077e2	-0.14108232
82	0x3cc1dcb4	0.02366481
83	0x3d095e8f	0.033537444
84	0x3da0aa47	0.07844978
85	0xbe86f993	-0.26362285
86	0x3d88eb87	0.06685548
87	0xbe02caf5	-0.12772734
88	0xbe0281b0	-0.12744784
89	0xbe09e9c4	-0.13468081
90	0xbc819675	-0.015818814
91	0x3e0537fb	0.13009636
92	0xbe4adde8	-0.19811213
93	0x3d895a10	0.06706631
94	0x3e4d2abe	0.20035836
95	0xbdf49050	-0.11941588
96	0x3d446612	0.047948904
97	0xbda695c0	-0.08134031
98	0x3d18d678	0.03731391
99	0x3deaf816	0.114731
100	0xbe2199af	-0.15781282
101	0x3d8e200e	0.06939708
102	0x3e7f7f41	0.24950887
103	0x3ce67861	0.028133573
104	0xbe178b14	-0.14799148
105	0x3c4c1bf1	0.012457834
106	0x3d3c49b5	0.04596873
107	0x3dad92f5	0.084752955
108	0xbd16e90e	-0.036843352
109	0xbcd63a6f	-0.02615091
110	0xbdc4526b	-0.095860325
111	0x3e2d0409	0.1689607
112	0xbe25cfa7	-0.16192494
113	0xbd6d3ae6	-0.057917498
114	0x3e0d409c	0.13794178
115	0xbdaf06a7	-0.08546191
116	0xbd66c309	-0.056338344
117	0xbd91b5d3	-0.07114758
118	0xbe6b88b7	-0.23001371
119	0x3e0ac297	0.13550793
120	0xbda3ba56	-0.07994525
121	0xbdb3893c	-0.0876641
122	0xbcd0aca3	-0.025472945
123	0x3dafdbe7	0.08586865
124	0x3e44be6a	0.19213262
125	0x3e6c754d	0.23091622
126	0x3caff790	0.021480352
127	0xbe674708	-0.2258569
128	0xbb992dcc	-0.004674649
129	0xbc8a53db	-0.016885689
130	0x3e69515e	0.22784945
131	0xbd9dba71	-0.077015765
132	0xbe4e3d98	-0.20140684
133	0x3d5ebf98	0.054381937
134	0xbce3b00f	-0.027793912
135	0x3d6e8cc7	0.058239724
136	0x3dbd419e	0.09241031
137	0x3d7d6772	0.06186623
138	0x3ddc2480	0.10749149
139	0xbe3f94a5	-0.18709047
140	0xbe5c2880	-0.21499825
141	0x3e4abc86	0.19798478
142	0x3e70114a	0.23444095
143	0xbded97f6	-0.1160125
144	0x3e6680d9	0.22510089
145	0x3d39e595	0.045384962
146	0xbd817afc	-0.063222855
147	0xbe07bd2f	-0.13255762
148	0xbdf9b837	-0.12193339
149	0x3e3121e8	0.1729809
150	0xbe12dafa	-0.14341345
151	0xbddde2d6	-0.10834281
152	0x3e69cefa	0.22832862
153	0xbdf0561d	-0.11735175
154	0x3e6dbc37	0.2321633
155	0x3dd541c1	0.10412932
156	0x3ded9f67	0.11602669
157	0x3d57dcaf	0.052700695
158	0xbd2d0786	-0.042243503
159	0x3dd3e252	0.103459015
160	0x3d90a39f	0.07062458
161	0xbe05514f	-0.13019298
162	0xbe55be79	-0.20873441
163	0xbe22aeb5	-0.15886958
164	0xbcd932c3	-0.026513463
165	0x3d94221e	0.0723307
166	0xbe147163	-0.14496379
167	0x3da30067	0.07959061
168	0x3e0d5f84	0.13805968
169	0x3e0eaab1	0.13932301
170	0xbe0c57e7	-0.13705407
171	0x3d80e374	0.06293383
172	0xbe5943a0	-0.21217203
173	0x3e36b5f6	0.1784285
174	0xbe231c36	-0.1592873
175	0x3c9616f6	0.018321496
176	0xbd510dc7	-0.05103853
177	0xbe4bd0f4	-0.19903928
178	0xbe48bec5	-0.19604023
179	0xbe111306	-0.14167413
180	0xbe106d88	-0.14104283
181	0x3e320512	0.17384747
182	0xbda07aff	-0.0783596
183	0xbe5a107a	-0.21295348
184	0x3d299845	0.04140498
185	0xbde1c5d6	-0.11024062
186	0x3c99e406	0.018785488
187	0x3e1bbeae	0.15209457
188	0xbe8cb6ac	-0.27483118
189	0xbe77d641	-0.24202825
190	0x3dc61b49	0.09673173
191	0x3e02cf7c	0.12774462
192	0xbe6ef920	-0.23337221
193	0x3d0b8a67	0.034067538
194	0x3e64eaaa	0.22355142
195	0xbdb03e2b	-0.086056076
196	0xbdad0000	-0.084472656
197	0x3da0c8cc	0.07850799
198	0x3e327a7c	0.17429537
199	0xbd812fae	-0.06307922
200	0xbe6eb843	-0.23312478
201	0xbcfc2e83	-0.030783897
202	0xbdeeabd9	-0.11653871
203	0xbe716aa1	-0.23575832
204	0x3e415035	0.18878253
205	0x3dfacbc9	0.122459
206	0x3dec0144	0.11523679
207	0xbe6e303f	-0.23260592
208	0x3e77a432	0.2418373
209	0x3e062ec0	0.13103771
210	0x3e2713b4	0.1631611
211	0xbd687ad0	-0.056757748
212	0xbda9d675	-0.082928576
213	0xbe80e807	-0.25177023
214	0x3e5d6117	0.21619068
215	0xbd5a205f	-0.053253528
216	0xbe80f056	-0.25183362
217	0x3e7af977	0.24509226
218	0xbb3ecc6c	-0.0029113544
219	0x3e39ac1e	0.18132064
220	0xbd9bc81c	-0.07606527
221	0xbb68c12f	-0.0035515537
222	0x3e346419	0.17616309
223	0x3e715767	0.23568498
224	0xbdc95168	-0.0982998
225	0x3d0fcbcb	0.03510646
226	0x3e0b7db1	0.13622166
227	0x3d10b1e9	0.03532592
228	0xbce7c269	-0.028290944
229	0x3e71d2f8	0.23615634
230	0x3e63c460	0.2224288
231	0xbd02b2e8	-0.0319089
232	0x3e16208d	0.14660855
233	0x3a584243	0.000824962
234	0x3c61ebe1	0.013789148
235	0x3e30fe78	0.17284572
236	0xbcc22431	-0.023698898
237	0xbccbe3ba	-0.024888862
238	0xbd4865d4	-0.048925236
239	0xbe5905d9	-0.21193637
240	0x3e40df5b	0.18835203
241	0xbe4b1df7	-0.1983565
242	0xbe13d939	-0.14438333
243	0x3cd4e916	0.02599005
244	0xbc9b218d	-0.018936897
245	0x3b1e2472	0.002413061
246	0x3bdcf86f	0.006743483
247	0x3e698b52	0.22807053
248	0xbe780ddd	-0.24224038
249	0xbe162e02	-0.14665988
250	0x3d425e14	0.047453
251	0xbe5e4e6a	-0.217096
252	0xbe424bf9	-0.18974294
253	0x3e3c974f	0.18417095
254	0x3dbf1a73	0.09331217
255	0xbd8bdb98	-0.068289936

mpnn_layers.0.cell.bias_ih f4 [54]
0	0x3d528133	0.051392745
1	0xbe365e93	-0.17809515
2	0x3dbc8029	0.09204132
3	0xbe311e82	-0.17296794
4	0xbe3f64a7	-0.1869074
5	0xbda56c47	-0.08077293
6	0x3e2b9f49	0.16759981
7	0x3e10c00f	0.14135765
8	0x3e1c5b28	0.15269148
9	0xbd6d1bff	-0.057888027
10	0x3e7d9348	0.24763215
11	0xbd8601ed	-0.06543336
12	0xbd279cc1	-0.040920977
13	0xbe56f95f	-0.20993565
14	0x3c45b319	0.012066626
15	0x3d8f0bf0	0.06984699
16	0xbe4d6c98	-0.20060956
17	0x3e49009f	0.19629143
18	0x3d4106df	0.047125693
19	0x3e65e7a0	0.22451639
20	0xbdd1fdae	-0.10253464
21	0xbc5a1c6b	-0.013312439
22	0xbdebea69	-0.115193196
23	0x3e4404ef	0.19142507
24	0xbe031336	-0.12800297
25	0x3e23aedc	0.15984672
26	0xbe20ccc8	-0.15703118
27	0x3e2f982b	0.17147891
28	0xbe624b16	-0.22098956
29	0xbdd665f0	-0.10468662
30	0xbdc653ec	-0.096839756
31	0xbd0e6ab4	-0.03476973
32	0x393b0430	0.0001783527
33	0x3dae2201	0.085025795
34	0x3e60588f	0.21908782
35	0x3e16a576	0.14711556
36	0xbdf2c9ed	-0.118549205
37	0x3e827714	0.25481474
38	0xbd175c3e	-0.036953203
39	0xbe06603a	-0.13122645
40	0x3d45255b	0.048131328
41	0xbccebe24	-0.02523715
42	0x3e754e8a	0.23955742
43	0x3a9dbb9b	0.001203406
44	0x3e1dfaaa	0.15427652
45	0x3d62c5ba	0.055364348
46	0xbe0d45ef	-0.13796209
47	0x3ca54e3d	0.020178908
48	0xbe1fde1f	-0.15612076
49	0xbd8ef370	-0.06980026
50	0xbda12d38	-0.07869953
51	0xbe49f196	-0.19721064
52	0x3da6a8ea	0.081376866
53	0x3e24a378	0.16077983

mpnn_layers.0.cell.bias_hh f4 [54]
0	0xbe6a34a4	-0.22871643
1	0x3e1cab38	0.1529969
2	0xbe480974	-0.19534856
3	0xbe53c783	-0.20681576
4	0x3decd42d	0.11563907
5	0xbca6a196	-0.020340722
6	0xbe29606b	-0.16540687
7	0x3e6ee8a9	0.2333094
8	0x3ca770be	0.020439502
9	0xbe1a6f91	-0.15081622
10	0x3e1717ab	0.14755122
11	0x3d708742	0.058722742
12	0xbd7e8f2b	-0.062148254
13	0xbe2528f9	-0.16128911
14	0xbc8a8288	-0.016907945
15	0x3e1bdcdd	0.15220971
16	0xbdb75d9e	-0.08953403
17	0x3dda88f3	0.10670652
18	0xbe6a58a9	-0.22885384
19	0xbdb73134	-0.089449316
20	0xbd9a0c3c	-0.07521865
21	0xbe6d379f	-0.23165749
22	0x3d37102f	0.04469317
23	0xbe4504bb	-0.19240086
24	0x3e0f8981	0.14017297
25	0x3d945fca	0.07244833
26	0x3c3e4634	0.011613417
27	0xbe067356	-0.13129935
28	0xbda769b0	-0.08174455
29	0x3d8ec457	0.069710426
30	0x3e71cf5b	0.23614256
31	0xbddc74c2	-0.10764457
32	0xbe210b96	-0.15727076
33	0xbdc3fc89	-0.09569652
34	0xbe257965	-0.1615959
35	0xbcba7f82	-0.022765879
36	0xbe35924a	-0.17731586
37	0x3e4a437b	0.19752304
38	0x3e239bdf	0.15977429
39	0xbe1914c4	-0.14949328
40	0x3e27e4d5	0.16395886
41	0x3d42f1c1	0.047593836
42	0xbe03244f	-0.1280682
43	0x3d5b82aa	0.053591408
44	0xbe5c5e28	-0.21520293
45	0xbe1590f3	-0.14606075
46	0xbe01c71d	-0.12673612
47	0xbe2433e3	-0.16035418
48	0xbd9f32ad	-0.077733375
49	0x3d403bbd	0.04693197
50	0x3d56642d	0.05234163
51	0xbe79269b	-0.24331133
52	0xbe737aee	-0.23777363
53	0xbd2caa4b	-0.04215459

mpnn_layers.1.edge_network.0.weight f4 [15, 6]
0	0x3eb356ca	0.35027152
1	0x3e100830	0.14065623
2	0x3ec1fbae	0.3788733
3	0xbe1f9627	-0.15584622
4	0x3deeb41b	0.11655446
5	0xbeba4cf7	-0.36386845
6	0x3e88b95e	0.26703924
7	0x3c638b07	0.013888127
8	0xbda963e1	-0.082710035
9	0xbe8bdb84	-0.27315915
10	0xbe9b32d7	-0.30312225
11	0xbdde316f	-0.108492725
12	0xbd16e06f	-0.03683513
13	0xbe5f7a2e	-0.21823952
14	0x3e3111a9	0.17291893
15	0xbd8adf73	-0.06780901
16	0x3d2afedb	0.041746955
17	0xbec3ad66	-0.3821823
18	0x3deb7765	0.11497382
19	0xbe4c6275	-0.19959433
20	0xbe9df0e1	-0.3084784
21	0xbe27c698	-0.16384351
22	0xbebe19cb	-0.37129053
23	0xbe9f8b80	-0.31161118
24	0x3e9bd7bf	0.3043804
25	0x3eab1794	0.33416426
26	0xbe912fc9	-0.2835677
27	0x3db552a0	0.0885365
28	0xbe575409	-0.2102815
29	0x3ec3984b	0.38202128
30	0x3e8bcea9	0.27306107
31	0x3e4d01f5	0.20020278
32	0xbeb51f3f	-0.353754
33	0xbe692bfe	-0.22770688
34	0xbd897fa8	-0.067138016
35	0xbec100b5	-0.37695852
36	0xbe74507b	-0.23858826
37	0x3ddc2104	0.10748485
38	0xbeaa290f	-0.3323445
39	0x3dde7543	0.1086221
40	0xbc18db02	-0.009329559
41	0xbd09b43e	-0.033619158
42	0xbdf55b5f	-0.11980318
43	0xbe5d255a	-0.2159628
44	0xbec5c37a	-0.386257
45	0xbe96d350	-0.29458094
46	0x3e9d5ebc	0.3073634
47	0xbce30818	-0.02771382
48	0x3ecb8941	0.39753154
49	0x3cb05057	0.021522684
50	0xbd4519e9	-0.048120413
51	0x3e7ab35a	0.2448248
52	0xbec4c9e6	-0.38435286
53	0xbe818e78	-0.25304008
54	0x3e6efa42	0.23337653
55	0xbdefe6dc	-0.11713955
56	0x3ead5a07	0.33857748
57	0xbb59b485	-0.003321917
58	0x3e955eca	0.2917388
59	0x3c6c5e2e	0.014426751
60	0x3d1983a7	0.03747907
61	0xbeb60f7b	-0.35558686
62	0xbe0eac42	-0.13932899
63	0x3d0561f2	0.03256411
64	0x3e3d75eb	0.18502013
65	0x3db154f4	0.08658782
66	0xbdb59b46	-0.08867507
67	0xbb05acf9	-0.002039729
68	0x3eba49ff	0.3638458
69	0x3e982708	0.29717278
70	0x3e0d72b0	0.13813281
71	0xbe9b2c64	-0.30307305
72	0xbe09e90e	-0.1346781
73	0x3e8417a9	0.257993
74	0x3ebd7945	0.37006584
75	0xbe428a66	-0.18998107
76	0x3e3459bf	0.1761236
77	0xbdc90da5	-0.098170556
78	0x3e99e1f4	0.300552
79	0xbd679334	-0.05653687
80	0xbebd3b19	-0.3695915
81	0xbee89acf	-0.4543061
82	0x3ce1ea05	0.02757741
83	0x3e226928	0.15860426
84	0xbe738f0d	-0.23785038
85	0x3ea306c1	0.3184109
86	0x3e49253f	0.19643115
87	0x3e7f01dc	0.24903053
88	0x3e438732	0.19094542
89	0xbecb0cc2	-0.3965817

mpnn_layers.1.edge_network.0.bias f4 [15]
0	0xbdb162f3	-0.08661451
1	0x3e87d051	0.2652612
2	0x3e50397d	0.2033443
3	0xbebe2efc	-0.3714522
4	0xbe6cf6a9	-0.23140968
5	0x3ea146f3	0.31499442
6	0xbead0ea4	-0.33800232
7	0x3ea1092c	0.3145231
8	0xbda14fb8	-0.07876533
9	0x3cc2f62a	0.02379902
10	0x3e4c6d13	0.19963484
11	0x3db99799	0.09062118
12	0xbe84a11b	-0.25904164
13	0x3e387cd0	0.18016362
14	0xbeb1fdaa	-0.34763843
