model/model_weights.pth (torch, 236062 bytes, 80 tensors)

node_embedding.weight f4 [18, 9]
0	0x3e84f421	0.25967506
1	0x3e8da79a	0.27666932
2	0xbda3a01c	-0.07989523
3	0x3e9e111a	0.30872422
4	0xbdb341a9	-0.08752758
5	0x3d40e7fb	0.047096234
6	0xbe25c7b1	-0.16189457
7	0x3e56e68a	0.20986381
8	0x3e94ade1	0.2903891
9	0xbe8380ca	-0.25684196
10	0x3e9457c3	0.28973207
11	0x3d5c4569	0.053777132
12	0x3e6f4655	0.23366673
13	0x3da69c83	0.08135321
14	0x3e3c1941	0.18369009
15	0xbd723fec	-0.059142992
16	0x3e6f08b5	0.23343165
17	0x3d11f711	0.03563601
18	0xbe244666	-0.1604248
19	0x3dae02b6	0.08496611
20	0xbe15cf17	-0.1462978
21	0xbd1312b2	-0.0359065
22	0xbdedb82b	-0.11607393
23	0x3e3af5fb	0.18257897
24	0xbe836e8f	-0.25670287
25	0xbe2750c3	-0.16339402
26	0xbdb5d141	-0.08877803
27	0xbe56c6f3	-0.2097433
28	0x3d00dd4b	0.03146104
29	0xbeadc987	-0.33942816
30	0x3e96a3fc	0.29421985
31	0xbe97f91d	-0.29682246
32	0x3e77839a	0.24171296
33	0x3d437056	0.047714554
34	0xbde12399	-0.10993118
35	0x3e4bfdf4	0.19921094
36	0x3d6070e1	0.05479515
37	0x3e89e476	0.26932114
38	0x3d07e929	0.033181343
39	0xbdcaa70a	-0.098951414
40	0x3d83af4a	0.06429918
41	0xbdd9d3d6	-0.106361076
42	0x3e1475a8	0.14498007
43	0x3ea3d2e0	0.31996822
44	0x3e49a60c	0.19692248
45	0xbe132b24	-0.14371926
46	0x3e450a28	0.19242156
47	0x3d7b617b	0.06137226
48	0x3e3734ee	0.17891285
49	0xbe59e272	-0.21277788
50	0xbea7d0b9	-0.3277643
51	0xbdf891bc	-0.121371716
52	0xbe7a9cf1	-0.24473931
53	0x3e8dccb5	0.27695242
54	0x3dd03057	0.1016547
55	0x3e0d6288	0.13807118
56	0x3df217ed	0.1182097
57	0x3b344627	0.0027507634
58	0x3ea96aa3	0.3308917
59	0xbe4c19cd	-0.19931717
60	0x3d05458a	0.03253702
61	0xbe767df8	-0.24071491
62	0x3df714b8	0.12064499
63	0xbe00cfc5	-0.12579258
64	0x3dd12e20	0.10213876
65	0xbd9e2b16	-0.07723062
66	0x3e897d61	0.2685347
67	0xbe66ef4e	-0.22552225
68	0xbe5c5f7d	-0.21520801
69	0xbe546fb3	-0.20745735
70	0x3e966aff	0.29378507
71	0x3ddeaac9	0.108724184
72	0x3ea8f67b	0.3300055
73	0xbe8cd8df	-0.2750921
74	0xbeac1c22	-0.33615214
75	0xbe860c40	-0.2618122
76	0xbe86c6d1	-0.2632356
77	0x3d964f0c	0.07339296
78	0x3df4ed6e	0.119593486
79	0x3e915ece	0.28392643
80	0xbe347748	-0.17623627
81	0xbe66eb08	-0.22550595
82	0x3e351aa0	0.17685938
83	0xbe0eeac8	-0.1395675
84	0x3e4e6144	0.20154291
85	0xbe19fd92	-0.15038136
86	0x3e345bb1	0.17613102
87	0xbe85c68e	-0.26128048
88	0xbe17151b	-0.14754145
89	0x3dd68d7f	0.10476207
90	0x3db72589	0.08942706
91	0xbdae0d46	-0.084986255
92	0x3e63edf8	0.22258747
93	0x3e7f588c	0.24936122
94	0xbe2c68ba	-0.16836825
95	0xbe03bbf8	-0.12864673
96	0x3ea45307	0.32094595
97	0xbde4de94	-0.11175266
98	0xbddec1f5	-0.10876838
99	0xbeb7d2b4	-0.3590294
100	0xbe4378b0	-0.19089007
101	0x3d5c174d	0.05373316
102	0xbda5552d	-0.080728866
103	0xbeb28b79	-0.34872034
104	0x3c1ce126	0.009575164
105	0xbe845b5f	-0.2585096
106	0xbe8f21f5	-0.27955595
107	0xbe359380	-0.17732048
108	0xbe9a3e19	-0.30125502
109	0xbe595706	-0.21224603
110	0x3ead6a4b	0.33870158
111	0x3d7491f7	0.059709515
112	0x3e07e93a	0.13272563
113	0xbe9416e8	-0.28923726
114	0xbe5f7f83	-0.21825986
115	0xbe00980b	-0.12558
116	0x3d287da9	0.041135464
117	0xbe966541	-0.29374126
118	0xbe131243	-0.14362435
119	0xbe535c7d	-0.2064075
120	0xbb21766b	-0.0024637233
121	0xbe1e0283	-0.15430646
122	0xbd3dafd3	-0.046310257
123	0xbe6b996b	-0.23007743
124	0xbe626e6f	-0.2211244
125	0xbe4fbdc2	-0.2028723
126	0xbdeb3316	-0.11484353
127	0xbe86b436	-0.26309365
128	0x3e8f68a8	0.28009534
129	0xbd97b647	-0.074078135
130	0x3e8254ac	0.25455225
131	0x3cd74b8e	0.026281144
132	0xbe952628	-0.29130673
133	0x3e7c9c52	0.24669006
134	0xbde22862	-0.11042859
135	0xbe0545ec	-0.13014954
136	0xbe8daa56	-0.27669019
137	0xbeaba0a9	-0.3352101
138	0x3dc1dcda	0.09465952
139	0xbddc0b26	-0.10744314
140	0x3dda3731	0.10655058
141	0xbe8d5b96	-0.27608937
142	0x3e833c97	0.25632164
143	0xbe7ad69a	-0.24495926
144	0xbd6d7017	-0.057968225
145	0x3d8e96a0	0.06962323
146	0x3e39fb3d	0.18162246
147	0x3e8c7927	0.27436182
148	0x3eb844b0	0.35989904
149	0xbe8116c8	-0.25212693
150	0x3db753ef	0.08951556
151	0xbe259790	-0.16171098
152	0xbaa01084	-0.0012211953
153	0xbe816538	-0.25272536
154	0x3e9b7406	0.30361956
155	0xbe78e3c6	-0.24305639
156	0x3e36e61d	0.17861219
157	0x3e07a3bf	0.13246058
158	0x3ddfec93	0.10933795
159	0xbe38620f	-0.18006156
160	0x3e94e575	0.29081312
161	0x3dac1061	0.084015615

node_embedding.bias f4 [18]
0	0x3d35d3ea	0.04439155
1	0xbe9d5299	-0.3072708
2	0x3e125d9e	0.14293525
3	0xbd6a9306	-0.05726912
4	0xbe142b0f	-0.1446955
5	0x3e97ce81	0.29649737
6	0x3da8d05f	0.08242869
7	0xbe44b649	-0.19210161
8	0xbe2cc860	-0.16873312
9	0xbc5dba7a	-0.013533229
10	0x3e52738a	0.20551887
11	0xbdf62898	-0.120194614
12	0xbe427617	-0.1899036
13	0xbdefa684	-0.11701682
14	0xbe8268f5	-0.254707
15	0x3df29940	0.11845636
16	0x3e85b1d7	0.26112244
17	0xbea18671	-0.31547883

edge_embedding.weight f4 [6, 3]
0	0x3e213500	0.15742874
1	0x3e98b4cd	0.2982544
2	0x3e273a13	0.16330747
3	0xbe5627d9	-0.20913638
4	0x3e9a49b0	0.30134344
5	0x3eadd125	0.33948627
6	0x3e601b84	0.21885496
7	0xbdcfc67c	-0.1014528
8	0xbe40a513	-0.18812971
9	0x3d5d13af	0.05397385
10	0xbdd0e0cf	-0.10199129
11	0xbe6a9633	-0.22908859
12	0x3ecc8786	0.39947146
13	0x3efe0a97	0.49617454
14	0xbd905629	-0.07047684
15	0xbe0ee86f	-0.13955854
16	0x3c0a086f	0.008424862
17	0xbd05eb58	-0.032695144

edge_embedding.bias f4 [6]
0	0x3e2924ca	0.1651794
1	0x3e145743	0.14486413
2	0xbf0cc6bb	-0.5499074
3	0xbe742c5f	-0.23845051
4	0x3f033023	0.51245326
5	0x3e7816cf	0.24227451

mpnn_layers.0.edge_network.0.weight f4 [15, 6]
0	0xbc7e1ce3	-0.015509817
1	0xbe7e23c7	-0.24818335
2	0xbe815376	-0.25258988
3	0xbebce633	-0.36894378
4	0xbe04470a	-0.12917724
5	0x3e0dbf9f	0.13842629
6	0x3e8bfdab	0.2734197
7	0x3e86d2ca	0.26332694
8	0xbec2fc99	-0.38083342
9	0xbe8c3e9d	-0.2739152
10	0xbd85d32d	-0.06534419
11	0x3ec78c99	0.38974455
12	0x3d71e4e4	0.059056178
13	0xbdd88604	-0.105724365
14	0x3e2cf3be	0.16889855
15	0xbe1f39e2	-0.15549424
16	0xbe874a9a	-0.26424104
17	0x3e989036	0.29797524
18	0xbe3ecbef	-0.18632482
19	0xbdcd226e	-0.100163326
20	0xbecc38e9	-0.3988717
21	0x3e91f8e8	0.28510213
22	0x3ea0fa60	0.3144102
23	0x3e1c0106	0.15234765
24	0xbe93d0fd	-0.28870383
25	0xbecb3c74	-0.3969456
26	0xbeac1a91	-0.3361402
27	0x3e988a2f	0.29792926
28	0x3e44c2b9	0.19214906
29	0x3eb22ad9	0.34798315
30	0x3e5b0079	0.21386899
31	0x3dd39bc5	0.10332445
32	0xbb830060	-0.0039978474
33	0xbe9ef69e	-0.3104753
34	0xbeb315d0	-0.3497758
35	0xbec3826f	-0.3818545
36	0x3e278b57	0.16361748
37	0xbe39fee0	-0.18163633
38	0xbdd39b42	-0.103323475
39	0xbe8af8f2	-0.27143055
40	0xbda4cf42	-0.08047344
41	0xbe8c9a78	-0.274616
42	0xbe889439	-0.26675585
43	0x3e0aaba4	0.13542038
44	0xbdf87bd2	-0.12132992
45	0x3e8109fc	0.2520293
46	0xbe061ce7	-0.13096963
47	0xbe995520	-0.29947758
48	0xbd8be76b	-0.06831249
49	0xbe4495d4	-0.1919778
50	0xbdfc71c3	-0.12326386
51	0xbec90328	-0.3926022
52	0x3e69d981	0.22836877
53	0xbe94b6b5	-0.29045644
54	0x3e5486fa	0.20754614
55	0x3e24e0ac	0.1610133
56	0x3e9f0c8e	0.31064266
57	0xbe8c4f1a	-0.274041
58	0x3e9a6e4e	0.3016228
59	0xbe4e9d86	-0.20177278
60	0x3e1b1fc4	0.15148836
61	0x3ec44bf4	0.38339198
62	0xbd6bd4d5	-0.05757602
63	0xbb4ee896	-0.0031571737
64	0xbdc07e7b	-0.09399124
65	0xbeae87f5	-0.34088102
66	0x3e586aa1	0.21134426
67	0xbee9614e	-0.4558205
68	0x3e9307e8	0.2871697
69	0x3eaad6e5	0.33367077
70	0x3ecf26e9	0.40459374
71	0xbe0381a5	-0.12842424
72	0xbeabbdff	-0.33543393
73	0x3dbbfa9a	0.09178658
74	0x3e66f0af	0.22552751
75	0xbed00ae5	-0.40633312
76	0xbdbdc783	-0.092665695
77	0xbe7a99a2	-0.24472669
78	0xbd12416c	-0.035706922
79	0xbe4dc49c	-0.20094532
80	0xbe2ae23e	-0.16687867
81	0xbe04b666	-0.12960204
82	0xbec6a2b2	-0.38796002
83	0x3eab814b	0.3349708
84	0x3eaf3b0a	0.3422473
85	0xbd832834	-0.064041525
86	0xbd3e6e90	-0.04649216
87	0xbe2a9cee	-0.16661426
88	0xbebcc2d2	-0.36867386
89	0xbecb68e2	-0.39728457

mpnn_layers.0.edge_network.0.bias f4 [15]
0	0x3e1f25d1	0.1554177
1	0xbe6205a4	-0.22072464
2	0xbe86604c	-0.26245344
3	0xbccec8ec	-0.025242291
4	0xbe061736	-0.13094792
5	0xbe073f25	-0.13207681
6	0x3cbe468b	0.023226997
7	0xbdb1587a	-0.08659454
8	0xbe18c706	-0.14919671
9	0xbe47622e	-0.19471046
10	0xbeaa1bd7	-0.33224365
11	0x3eaf0420	0.34182835
12	0xbe274bf7	-0.16337572
13	0x3ddd8c20	0.10817742
14	0xbe110c3d	-0.14164825

mpnn_layers.0.edge_network.2.weight f4 [15, 15]
0	0x3cc629f0	0.02418992
1	0x3e9a1cc4	0.3010007
2	0x3df3a04c	0.118958086
3	0xbe6f702b	-0.23382632
4	0x3d6034f8	0.054738015
5	0x3e7af9c6	0.24509344
6	0x3d96269a	0.073315814
7	0x3e3141e4	0.17310292
8	0x3e7f7dcf	0.24950336
9	0xbd1910d3	-0.03736956
10	0x3d5b8189	0.05359033
11	0xbe4a9526	-0.19783458
12	0xbd59f18d	-0.053208876
13	0x3e43cea1	0.19121791
14	0x3e078a95	0.13236459
15	0xbe274e82	-0.16338542
16	0xbe5403d2	-0.20704582
17	0xbe34adab	-0.17644374
18	0xbe82768d	-0.25481072
19	0xbe4c049c	-0.19923633
20	0xbd82c4cb	-0.063851915
21	0x3e326f42	0.17425254
22	0x3d310543	0.04321791
23	0xbe4919cd	-0.19638748
24	0xbe541ac2	-0.20713332
25	0x3e0387c2	0.12844756
26	0xbe44ab1d	-0.192059
27	0xbd0237ac	-0.031791374
28	0x3dfdaa16	0.12385957
29	0xbdf4bb23	-0.11949756
30	0xbce6a32e	-0.028153982
31	0xbcb81d0c	-0.022474788
32	0xbd7a34da	-0.06108556
33	0xbe060e9e	-0.13091514
34	0xbe6bb143	-0.23016839
35	0xbe55b9e1	-0.20871688
36	0xbe0d92e1	-0.13825561
37	0x3e7f5d01	0.24937822
38	0xbdff69fb	-0.12471386
39	0xbe318c91	-0.17338778
40	0x3d802d0b	0.06258591
41	0x3d91bd88	0.07116228
42	0x3e10dd6e	0.14146969
43	0x3e48f8f8	0.19626224
44	0x3e133c30	0.14378428
45	0xbe831304	-0.25600445
46	0x3cbb9751	0.022899302
47	0x3e202892	0.15640476
48	0xbcc37ec1	-0.023864152
49	0xbe1bcd88	-0.15215123
50	0x3e7c0f15	0.24615128
51	0xbdc5c85e	-0.09657358
52	0xbe168840	-0.14700413
53	0xbe6e5e04	-0.23278052
54	0x3c3cf635	0.01153331
55	0x3dea5330	0.11441648
56	0x3d6a1c07	0.057155635
57	0x3d5122fe	0.05105876
58	0xbe4883ac	-0.19581479
59	0xbe76ea6e	-0.24112865
60	0xbd53d2ee	-0.05171483
61	0x3e488919	0.19583549
62	0x3e188917	0.14896046
63	0xbe15c3d7	-0.14625488
64	0xbc2af9e7	-0.010435558
65	0xbe42e87c	-0.19033998
66	0xbded2a22	-0.11580302
67	0x3d3f86c6	0.04675939
68	0x3e1bbae3	0.1520801
69	0x3e67512b	0.22589557
70	0xbe72be46	-0.23705396
71	0x3e3f3b88	0.18675053
72	0xbe3a79e6	-0.18210563
73	0x3dc603d9	0.09668703
74	0x3e5fbe5b	0.21849959
75	0x3c792302	0.0152061
76	0x3e6253b0	0.22102237
77	0xbe61475a	-0.21999875
78	0xbdbe8294	-0.093022496
79	0x3e2a34e3	0.16621737
80	0xbd6669cb	-0.056253236
81	0xbd7f3e02	-0.062314995
82	0xbddc6555	-0.10761515
83	0x3e2e25ad	0.1700656
84	0x3de6a540	0.11261988
85	0x3da97383	0.08273985
86	0xbe179295	-0.1480201
87	0xbe569f81	-0.20959283
88	0x3ce4c70f	0.02792695
89	0x3d9cab70	0.076498866
90	0xbdf42634	-0.11921349
91	0xbd93f45f	-0.072243445
92	0x3e329075	0.17437918
93	0x3ca87e52	0.020568047
94	0x3c3edd8f	0.011649503
95	0xbd8222c6	-0.06354289
96	0xbe6f6f1a	-0.23382226
97	0xbe789999	-0.24277343
98	0xbdfcc52d	-0.12342296
99	0xbe0665e2	-0.13124803
100	0x3da4bf31	0.08044279
101	0xbd99efd5	-0.075164475
102	0xbdcedff7	-0.10101312
103	0x3e7c152c	0.24617451
104	0x3db830ab	0.08993658
105	0x3e3e88c4	0.1860686
106	0xbe2ab2a6	-0.16669711
107	0xbdd7fe64	-0.10546568
108	0x3dbbeca8	0.09175998
109	0xbe232fd7	-0.15936218
110	0xbe2cd626	-0.16878566
111	0xbcc8ffa8	-0.024535969
112	0xbdc1693c	-0.094439
113	0xbe50b081	-0.20379831
114	0x3e10af2b	0.14129321
115	0x3e549dff	0.20763396
116	0x3d0ab9ad	0.03386848
117	0xbd3823a1	-0.044955853
118	0xbe74e70e	-0.23916265
119	0xbdc09b35	-0.094046034
120	0x3d869f67	0.06573372
121	0x3df9576a	0.12174876
122	0xbd05b26d	-0.032640863
123	0xbdd10f24	-0.10207966
124	0x3e135402	0.14387515
125	0xbe52908b	-0.20562951
126	0x3e271a52	0.16318634
127	0xbdcd25ab	-0.1001695
128	0x3b817e6a	0.0039518373
129	0xbd50febf	-0.051024195
130	0x3d00385f	0.03130376
131	0xbd9fccc6	-0.07802729
132	0x3e403fcc	0.18774337
133	0xbbdbf403	-0.006712438
134	0x3e4e631a	0.20154992
135	0x3e82609a	0.25464326
136	0xbe085b8d	-0.13316174
137	0xbe40e109	-0.18835844
138	0x3e56ce64	0.2097717
139	0x3e565872	0.20932177
140	0xbe49e0eb	-0.19714706
141	0xbca439ec	-0.02004715
142	0xbe825d1f	-0.2546167
143	0xbe58cc8a	-0.21171775
144	0x3d48cae6	0.049021624
145	0x3d8cad42	0.06868984
146	0x3d61b79c	0.055106744
147	0xbd8feb18	-0.070272624
148	0x3e73ecf1	0.23820855
149	0x3d173604	0.036916748
150	0xbe2927eb	-0.16519134
151	0xbbb0fb51	-0.005401053
152	0x3d7df931	0.062005226
153	0x3dbb5bbf	0.091483586
154	0xbe4011bb	-0.18756764
155	0x3dc62f7c	0.09677026
156	0xbdf150e7	-0.11783009
157	0xbe5bb270	-0.21454787
158	0xbe005e37	-0.1253594
159	0x3e899d91	0.26878026
160	0x3e62054c	0.22072333
161	0x3e78ef50	0.2431004
162	0x3e1b3406	0.15156564
163	0x3e47bcd2	0.19505623
164	0xbd0d8ea2	-0.034559853
165	0xbe117a55	-0.14206822
166	0x3e041b66	0.12901077
167	0xbe090159	-0.1337942
168	0xbe326e7d	-0.1742496
169	0xbda8dc6f	-0.08245169
170	0x3d5df189	0.054185424
171	0x3e081c28	0.13291991
172	0xbdcd6327	-0.100286774
173	0xbe1b9d48	-0.15196717
174	0x3d0ea91a	0.034829237
175	0xbe1bd7f5	-0.152191
176	0xbe2c2348	-0.16810334
177	0x3e09d116	0.13458666
178	0xbd31a859	-0.04337344
179	0x3e7199cd	0.23593827
180	0x3e71b602	0.23604587
181	0x3db70cb7	0.08937972
182	0x3db5fcd4	0.08886114
183	0x3d5fe6b7	0.054663386
184	0xbbe961cb	-0.0071222535
185	0xbc99d756	-0.018779438
186	0x3c46bd7a	0.012130136
187	0x3dc576ba	0.09641786
188	0x3e7d217c	0.24719805
189	0xbd67b265	-0.056566615
190	0xbddf8748	-0.10914475
191	0xbd6bad8a	-0.057538547
192	0xbdff78cf	-0.12474214
193	0x3d33d479	0.0439038
194	0x3e455b93	0.19273214
195	0x3e3e66c7	0.18593894
196	0x3e258504	0.16164023
197	0xbe4293bd	-0.1900167
198	0xbe294ab3	-0.16532402
199	0xbdf2ea11	-0.11861051
200	0xbd42f022	-0.04759229
201	0x3c955fb0	0.018234104
202	0xbe72b52a	-0.23701921
203	0x3d84f213	0.064914845
204	0xbe427ba6	-0.1899248
205	0xbe274b82	-0.16337398
206	0xbe7db3d7	-0.24775635
207	0x3e665f86	0.22497377
208	0xbe7a5de5	-0.2444988
209	0x3e477388	0.19477665
210	0xbcb9d85a	-0.022686172
211	0xbd7638b2	-0.060112663
212	0x3e255fb2	0.16149786
213	0xbd0f2a48	-0.034952432
214	0x3e16b345	0.14716823
215	0x3e3f297a	0.18668166
216	0xbe693f3f	-0.22778033
217	0x3dcb786e	0.099350795
218	0x3d34daf4	0.044154122
219	0x3d5865ed	0.05283158
220	0x3d1a65e4	0.037694827
221	0x3d872d2a	0.06600411
222	0xbdfe624b	-0.12421092
223	0xbd074eee	-0.033034258
224	0x3e7b3525	0.24531992

mpnn_layers.0.edge_network.2.bias f4 [15]
0	0x3e2e8a9a	0.1704506
1	0xbc1eed4d	-0.009700132
2	0xbe78ac1b	-0.24284403
3	0x3c3967ed	0.011316282
4	0xbe3baf70	-0.18328643
5	0x3e5cc96f	0.21561216
6	0xbe2082e2	-0.15674928
7	0xbcbcff08	-0.023070827
8	0xbd6ab903	-0.057305347
9	0x3d4c5a61	0.04989088
10	0x3e7716c3	0.24129777
11	0x3cc8fb3a	0.024533857
12	0x3e12890f	0.14310096
13	0x3e390e15	0.18071778
14	0x3e47dd04	0.19517905

mpnn_layers.0.edge_network.4.weight f4 [324, 15]
0	0xbdac7cb9	-0.084222265
1	0xbd6c8910	-0.0577479
2	0x3dfed832	0.1244358
3	0xbd904a41	-0.07045413
4	0x3e04ae5f	0.12957142
5	0xbd7677e4	-0.06017293
6	0xbe3353b5	-0.175124
7	0x3de0bc23	0.10973384
8	0x3d222581	0.039586548
9	0x3def6846	0.116898105
10	0x3e866502	0.26248938
11	0x3e3482fa	0.17628089
12	0x3e77f8f1	0.24216057
13	0x3cf4956a	0.029856402
14	0xbe6024a3	-0.21888976
15	0xbe3bfeb5	-0.18358882
16	0xbe243c53	-0.16038637
17	0xbe68ff8d	-0.22753735
18	0xbe048715	-0.12942155
19	0xbe7497ad	-0.23885985
20	0xbe64e840	-0.22354221
21	0xbe1dfda7	-0.15428792
22	0xbe74c52d	-0.23903342
23	0xbe224a13	-0.1584857
24	0x3def89fa	0.11696239
25	0x3e6b7161	0.2299247
26	0xbd9d4bb7	-0.07680457
27	0xbd6e31da	-0.05815301
28	0x3df3c179	0.11902136
29	0xbde157aa	-0.11003049
30	0xbe01dfe4	-0.12683064
31	0x3e22e6e8	0.15908396
32	0xbe665e4e	-0.22496912
33	0x3d0150cf	0.031571206
34	0x3e6059b8	0.21909225
35	0x3d47fb42	0.048823602
36	0x3d8fcd31	0.07021559
37	0xbe1ea0ac	-0.15490979
38	0xbb6974c8	-0.0035622586
39	0x3c53ce4d	0.012927604
40	0x3d6ba6a2	0.05753196
41	0x3dcd75b2	0.10032214
42	0x3e68cf0a	0.22735229
43	0xbe5b751d	-0.21431394
44	0x3b9d9236	0.0048086895
45	0xbe0c69df	-0.13712262
46	0xbe512764	-0.20425183
47	0xbca960a1	-0.020675959
48	0xbe68bb16	-0.22727618
49	0x3e349f8b	0.17638986
50	0x3d21ea49	0.039530072
51	0xbe0e7f88	-0.13915837
52	0x3e0dedf8	0.13860309
53	0xbe7a3b40	-0.24436665
54	0xbdb960df	-0.0905168
55	0xbd45c8c8	-0.048287183
56	0xbe60ab98	-0.21940458
57	0xbe1da825	-0.15396173
58	0xbd8b51ea	-0.06802733
59	0x3e4ee4d7	0.20204483
60	0x3e6efda4	0.23338944
61	0x3e28399b	0.16428225
62	0xbe1de082	-0.15417674
63	0xbe2cf926	-0.16891918
64	0x3e6f25e4	0.23354298
65	0x3d9379be	0.07200955
66	0x3be0c7c1	0.00685975
67	0x3d20c216	0.039247595
68	0xbe547e72	-0.2075136
69	0xbdb2a07c	-0.08722016
70	0x3e81724d	0.25282517
71	0xbd826abf	-0.063680165
72	0xbcc5c851	-0.02414337
73	0xbe5ed1f7	-0.21759783
74	0xbe12fcd4	-0.14354259
75	0x3c0c1a93	0.008551258
76	0xbe243b5b	-0.16038267
77	0xbd032681	-0.032019142
78	0x3dd7324d	0.10507641
79	0xbe7d60e2	-0.24743989
80	0x3dd4bfec	0.10388169
81	0xbe2ed211	-0.17072321
82	0xbdc5ad23	-0.09652164
83	0x3dcb0214	0.09912506
84	0x3e742500	0.2384224
85	0xbd2ae6c1	-0.04172397
86	0xbdd91af9	-0.10600848
87	0xbe50f24f	-0.20404933
88	0xbe0bfb11	-0.13669993
89	0xbe474016	-0.1945804
90	0xbd41af03	-0.047286045
91	0x3d57ce34	0.052686885
92	0xbe77b4b4	-0.24190027
93	0x3e66d8f1	0.22543694
94	0x3e2ea4f6	0.17055115
95	0xbe81f0fd	-0.25379172
96	0xbdfc9175	-0.12332431
97	0x3db3b0bb	0.08773943
98	0xbd594a5e	-0.053049438
99	0xbce571e6	-0.028008413
100	0xbde38e5a	-0.11111136
101	0x3e545e26	0.2073904
102	0xbe15233c	-0.14564222
103	0x3e75a50d	0.23988743
104	0x3c9c2dab	0.019064745
105	0x3d22c974	0.039742902
106	0x3e4e4373	0.20142917
107	0xbd2e40d4	-0.042542294
108	0xbe16882b	-0.14700381
109	0xbd2f87e0	-0.04285419
110	0x3e6277e7	0.22116052
111	0xbe442da1	-0.19158031
112	0x3da04233	0.078251265
113	0xbe81ec43	-0.25375566
114	0x3e1fd309	0.15607847
115	0x3de2d214	0.110752255
116	0x3c335550	0.010945633
117	0x3e010ae8	0.12601817
118	0xbd11aab6	-0.035563193
119	0x3e2550a5	0.16144045
120	0xbe7541be	-0.2395086
121	0xbd1b4f04	-0.037917152
122	0x3dea945d	0.11454079
123	0x3e83a513	0.2571188
124	0x3de69d84	0.112605125
125	0xbe67b0c4	-0.22626024
126	0x3e4b588b	0.19857995
127	0xbdbfd39b	-0.093665324
128	0xbd61cf26	-0.055129193
129	0xbe8bae3d	-0.2728137
130	0xbda0de08	-0.07854849
131	0x3e3b039e	0.18263099
132	0xbb7adf1c	-0.0038279956
133	0xbe388b4c	-0.18021888
134	0x3d2790e5	0.040909667
135	0xbdafafb7	-0.08578437
136	0x3e716444	0.23573405
137	0xbe657bc2	-0.22410491
138	0xbda70841	-0.08155871
139	0xbe83a98c	-0.25715292
140	0xbdbe70a1	-0.09298826
141	0x3da6b342	0.081396595
142	0x3e7cce20	0.24688005
143	0x3d319dfc	0.043363556
144	0x3e839194	0.25697005
145	0x3d43a076	0.04776045
146	0x3e18b2b1	0.14911915
147	0x3e5ba4b8	0.21449554
148	0x3e4b8c27	0.19877683
149	0xbe12d38d	-0.14338513
150	0x3e7a12ff	0.24421309
151	0x3e202969	0.15640797
152	0xbdf74071	-0.12072838
153	0xbdfc574c	-0.12321338
154	0xbe54607f	-0.20739935
155	0x3d8065e5	0.06269435
156	0xbe564e43	-0.20928292
157	0x3de93e4b	0.113888346
158	0x3da6fdb7	0.08153861
159	0xbe630846	-0.22171125
160	0x3d9d2a58	0.07674092
161	0xbcac070c	-0.020999454
162	0x3def3817	0.1168062
163	0x3e2afe1c	0.16698498
164	0xbe817d31	-0.25290826
165	0x3e6d117d	0.23151202
166	0x3e5dbbba	0.21653643
167	0x3dd265bd	0.10273311
168	0xbe71a5b8	-0.23598373
169	0xbdcf75c7	-0.10129886
170	0xbd8f06c8	-0.06983715
171	0xbd87e5f6	-0.066356584
172	0x3e10d0d0	0.14142156
173	0x3dc040c2	0.093873516
174	0x3e5147b9	0.20437516
175	0xbdd14aac	-0.10219321
176	0x3db1f594	0.086894184
177	0x3dc3fd5e	0.0956981
178	0xbe6e754b	-0.23286931
179	0xbe8161c1	-0.25269893
180	0xbe0a872a	-0.13528123
181	0x3e34fdce	0.17674944
182	0xbe78eaf8	-0.24308383
183	0xbe662390	-0.22474504
184	0x3e0ae81e	0.13565108
185	0x3e1856f6	0.14876923
186	0x3e596fe3	0.21234088
187	0xbe495a54	-0.19663364
188	0xbe4182d8	-0.18897569
189	0x3e0c90d5	0.13727124
190	0x3e637b88	0.22215092
191	0x3e1e32bd	0.15449043
192	0x3d4838c2	0.048882253
193	0x3d918836	0.07106058
194	0x3e7d11cd	0.24713822
195	0xbe2ea265	-0.17054136
196	0xbdf013d7	-0.11722534
197	0x3e38ef9f	0.18060158
198	0xbe34e8f5	-0.17666991
199	0xbe1a8572	-0.15089968
200	0x3e46a27e	0.19397923
201	0x3da6d868	0.08146745
202	0x3da2d500	0.07950783
203	0xbde01f85	-0.10943512
204	0xbb7ec80f	-0.0038876568
205	0x3e6cb5cf	0.2311623
206	0xbe1eb212	-0.15497616
207	0x3bc4cc1c	0.006005777
208	0x3dd9e3a8	0.10639125
209	0xbe38b163	-0.18036418
210	0x3e7dbecd	0.24779816
211	0xbe041849	-0.12899889
212	0xbd7df6b5	-0.062002856
213	0xbd8f1341	-0.06986094
214	0xbe374bf2	-0.17900065
215	0xbe7cb99c	-0.2468018
216	0x3e151475	0.14558585
217	0x3d844b14	0.064596325
218	0xbe77a219	-0.24182929
219	0xbe28c3c2	-0.16480926
220	0x3e80395f	0.2504377
221	0x3dca1f61	0.09869266
222	0x3ddec6ca	0.1087776
223	0xbe2d3a64	-0.16916806
224	0xbde956af	-0.11393487
225	0xbd30f88b	-0.04320578
226	0xbd41691f	-0.047219392
227	0xbe352d3c	-0.17693037
228	0x3cae41fd	0.0212717
229	0x3c8f83e2	0.017518941
230	0xbcdc84d3	-0.026918804
231	0x3d129d57	0.035794582
232	0xbdd853b1	-0.10562838
233	0x3d899e73	0.06719675
234	0x3dc8a5f5	0.09797279
235	0xbe0fe354	-0.14051563
236	0xbe8315a8	-0.2560246
237	0x3e0ebf07	0.13940059
238	0x3d34ffac	0.04418914
239	0xbe07e3d8	-0.13270509
240	0x3e864375	0.2622334
241	0xbdef2512	-0.116769925
242	0x3e32aa1e	0.17447707
243	0x3e0622ad	0.13099165
244	0xbe531cba	-0.20616427
245	0x3e2f08d6	0.17093214
246	0xbe731acb	-0.2374069
247	0xbe0b3a84	-0.1359654
248	0xbd305096	-0.043045603
249	0xbe2aed62	-0.16692117
250	0x3e85ea6b	0.2615541
251	0xbd54212a	-0.05178944
252	0x3ddb57bc	0.107100934
253	0xbe521158	-0.20514429
254	0x3e200150	0.156255
255	0xbdadd237	-0.08487361

mpnn_layers.0.edge_network.4.bias f4 [324]
0	0x3e690428	0.22755492
1	0x3dafb380	0.08579159
2	0xbe3de79f	-0.18545388
3	0x3e1a30e4	0.15057713
4	0x3bfbb2ad	0.007681212
5	0x3e916dd2	0.284041
6	0xbbb06f29	-0.005384345
7	0x3c6d6001	0.014488221
8	0xbe938fa0	-0.28820515
9	0xbe54df2b	-0.20788257
10	0x3af50e2b	0.0018696239
11	0x3e61d0e0	0.22052336
12	0xbe1d1b59	-0.15342464
13	0x3d552c49	0.052044187
14	0xbe33193c	-0.17490095
15	0xbe4aa07a	-0.1978778
16	0xbdb5c245	-0.088749446
17	0xbe2bed87	-0.16789828
18	0xbe4eb01e	-0.20184371
19	0xbdb9990a	-0.09062393
20	0xbd35b069	-0.04435769
21	0x3e040677	0.12893091
22	0x3deea9b0	0.11653459
23	0x3d187589	0.037221465
24	0xbd4b1001	-0.04957581
25	0xbd690419	-0.056888673
26	0xbe626c4b	-0.22111623
27	0x3e311547	0.17293273
28	0x3e7b7119	0.24554862
29	0xbe7b935c	-0.24567932
30	0xbe82d375	-0.25551954
31	0xbe80aa7c	-0.2513007
32	0xbd69c75e	-0.057074897
33	0xbc35aeb3	-0.011089015
34	0xbe1fd410	-0.15608239
35	0x3e052dfd	0.13005824
36	0x3c9cbe2f	0.019133655
37	0xbe0f014e	-0.13965341
38	0xbe7ce2f9	-0.24695958
39	0x3e53c311	0.2067988
40	0x3e8225d9	0.254195
41	0xbb9ec711	-0.004845508
42	0xbe04086f	-0.12893842
43	0x3e3181ff	0.17334746
44	0x3e523f31	0.20531918
45	0xbd158c00	-0.036510468
46	0x3e74d322	0.23908666
47	0xbe43ce15	-0.19121583
48	0xbd19f6c4	-0.03758885
49	0x3e617c08	0.2201997
50	0xbe27ed79	-0.16399182
51	0xbd95e33a	-0.07318731
52	0xbdef693e	-0.11689995
53	0xbdd37595	-0.10325161
54	0x3e6e993d	0.23300643
55	0x3e136ad4	0.1439622
56	0xbe722a5d	-0.23648973
57	0xbe22336d	-0.1583993
58	0xb9662408	-0.00021947932
59	0xbe00ee34	-0.12590867
60	0xbe12d756	-0.14339957
61	0xbe803fa9	-0.2504857
62	0x3e81b397	0.2533233
63	0x3e0f35d6	0.1398538
64	0x3d9d4bc8	0.0768047
65	0xbd806158	-0.06268567
66	0xbe865e12	-0.26243645
67	0xbc9da7c9	-0.019245045
68	0x3db88bc1	0.09011031
69	0xbd9698f4	-0.07353392
70	0x3e4d6348	0.20057404
71	0x3d66a48b	0.056309264
72	0xbc0dac32	-0.008647012
73	0x3dc825e6	0.097728536
74	0x3e01c169	0.12671436
75	0xbe48d4ad	-0.1961238
76	0x3da80167	0.082033925
77	0xbe57ab42	-0.21061423
78	0xbd331ac8	-0.043726712
79	0xbdca0e31	-0.09865988
80	0x3e2ca24e	0.1685879
81	0xbe81f4cb	-0.25382075
82	0x3dd060db	0.10174724
83	0xbe75a319	-0.23987998
84	0x3de7055c	0.11280319
85	0x3d682731	0.056678
86	0xbdd96f58	-0.1061694
87	0x3d83cc9e	0.06435512
88	0x3e85cc8c	0.2613262
89	0x3e17b68c	0.1481573
90	0xbe695c2a	-0.22789064
91	0xbda3c608	-0.07996756
92	0x3e686372	0.22694185
93	0x3d104c1c	0.035228834
94	0x3d36600a	0.044525184
95	0x3bd7d4e5	0.0065866583
96	0xbdb0533a	-0.08609624
97	0xbd9cc7bf	-0.07655286
98	0x3d0ee916	0.034890257
99	0x3e3df564	0.1855064
100	0xbd86bdf6	-0.06579201
101	0xbd9b8815	-0.07594315
102	0x3d18a60a	0.037267722
103	0xbdd1458f	-0.102183454
104	0x3e5a47b6	0.21316418
105	0x3e3fb467	0.18721162
106	0x3c629533	0.013829517
107	0xbe32edca	-0.17473522
108	0x3d9882b5	0.074468054
109	0x3e67ef03	0.2264977
110	0x3da55474	0.08072749
111	0x3dd17fe8	0.10229474
112	0xbe079039	-0.1323861
113	0xbe83fc04	-0.2577821
114	0xbdbb7761	-0.09153629
115	0x3ba12577	0.0049177962
116	0x3e45c9b7	0.1931523
117	0x3d51cfa8	0.051223427
118	0xbd33ec82	-0.043926723
119	0xbd8be443	-0.06830647
120	0xbd4528b1	-0.04813451
121	0xbe119fc6	-0.14221105
122	0xbdd9b0fe	-0.10629462
123	0x3d33bff2	0.043884225
124	0x3e3a5b8b	0.18198983
125	0x3e5ed60c	0.2176134
126	0x3dc913eb	0.09818252
127	0xbe318ce1	-0.17338897
128	0x3e6e8f49	0.23296846
129	0x3e72db35	0.23716433
130	0xbd9502f4	-0.07275954
131	0x3cf275cd	0.029597187
132	0x3e7b466e	0.24538586
133	0xbdef0c6f	-0.116722934
134	0x3d8600c1	0.065431125
135	0x3d1e9c09	0.038723025
136	0x3e1893ec	0.14900178
137	0x3db41df2	0.08794774
138	0x3e86c9a6	0.2632572
139	0x3e5b8095	0.21435769
140	0xbe32b77f	-0.1745281
141	0x3e1225b3	0.14272194
142	0xbd2d08b8	-0.042244643
143	0xbe118532	-0.14210966
144	0x3d1da43e	0.03848671
145	0xbcd29db4	-0.025709964
146	0xbe2900bf	-0.16504191
147	0xbe6b085d	-0.22952409
148	0xbe1819d2	-0.148536
149	0x3d4dc38b	0.050235312
150	0x3e200dee	0.15630314
151	0x3e1bd1f0	0.15216804
152	0x3d2e290c	0.042519614
153	0x3e7f3f27	0.24926434
154	0xbe657c12	-0.2241061
155	0xbe20ef62	-0.15716317
156	0x3df91740	0.12162638
157	0xbe6d772a	-0.23189989
158	0x3e813aa2	0.25240046
159	0x3d1196ca	0.035544194
160	0xbdc4e522	-0.09614016
161	0x3e6dec82	0.23234752
162	0x3dfb7141	0.12277461
163	0x3e6254af	0.22102617
164	0x3e41999c	0.18906254
165	0xbd517eb8	-0.05114624
166	0x3e6ecef6	0.23321137
167	0x3d769dfe	0.060209267
168	0x3d0dbec4	0.034605756
169	0x3daca764	0.08430365
170	0xbe6f37cc	-0.23361129
171	0xbe200eff	-0.1563072
172	0x3e808010	0.25097704
173	0xbe2f4714	-0.17116958
174	0x3e1423cd	0.14466782
175	0x3e1b584e	0.15170404
176	0xbe55131e	-0.20808074
177	0xbd1f59c1	-0.038903955
178	0x3c1f4808	0.009721763
179	0x3e3e726b	0.18598334
180	0xbd95a2d0	-0.07306445
181	0x3e7f0290	0.24903321
182	0xbe5e34a3	-0.21699767
183	0x3de63f97	0.112425976
184	0x3e0ee325	0.13953836
185	0xbd4d6148	-0.050141603
186	0xbdab38a3	-0.08360412
187	0xbe204fa4	-0.1565538
188	0x3cb8a73b	0.02254068
189	0x3db9c8d7	0.0907151
190	0xbdb6f34b	-0.08933123
191	0x3e589984	0.21152312
192	0xbcf0fb8f	-0.029416827
193	0xbd1fcfe1	-0.03901661
194	0x3e53fcad	0.20701857
195	0x3d30771b	0.043082338
196	0x3e13aa60	0.14420462
197	0x3e1e28a5	0.15445192
198	0xbe2e697b	-0.17032425
199	0x3ad9c74f	0.0016615185
200	0x3e68f056	0.22747931
201	0xbe262aa2	-0.162272
202	0x3d05d7b5	0.032676417
203	0x3e538a39	0.20658197
204	0x3d0855a5	0.033284802
205	0xbd8d468c	-0.068982214
206	0x3d725b87	0.05916932
207	0xbe5935e9	-0.21211971
208	0x3e58a9c4	0.2115851
209	0x3e505621	0.20345356
210	0xbd892d4c	-0.06698093
211	0xbdbeb5e5	-0.093120374
212	0xbd40a983	-0.04703666
213	0x3e81f7d4	0.2538439
214	0xbdc50574	-0.09620181
215	0x3d9d9e50	0.07696211
216	0xbe78ab8c	-0.2428419
217	0x3d9e3a95	0.077260174
218	0x3e1ae5fd	0.15126796
219	0x3d9c7006	0.07638554
220	0xbc2cfe71	-0.01055871
221	0x3d222117	0.03958234
222	0x3e6dde1d	0.2322926
223	0x3dcbc7b1	0.099501975
224	0xbdcab461	-0.09897686
225	0xbe57d1a7	-0.2107607
226	0x3e462dbf	0.19353388
227	0xbdcb550a	-0.09928329
228	0x3e26aedf	0.16277646
229	0xbd663ae8	-0.05620852
230	0x3b41a7d4	0.0029549496
231	0xbe596ea6	-0.21233615
232	0xbdb89a4b	-0.09013804
233	0x3c77eca4	0.015132103
234	0xbe8337f4	-0.25628626
235	0xbcefda47	-0.029278887
236	0x3e1d5d27	0.15367566
237	0x3e42be6e	0.19017956
238	0x3e3b80ec	0.18310899
239	0xbd7470c8	-0.05967787
240	0x3c8f6ab1	0.01750693
241	0xbe493ffc	-0.19653314
242	0x3d9d08d2	0.07667698
243	0x3d582110	0.052765906
244	0x3e5b2982	0.21402553
245	0xbd0e4593	-0.03473432
246	0x3e84e357	0.25954697
247	0x3e08313d	0.13300033
248	0x3e6b0518	0.22951162
249	0xbc4ae1b4	-0.012382913
250	0xbe4ae9f1	-0.19815804
251	0xbe46e367	-0.19422685
252	0xbe748667	-0.23879395
253	0x3d173d32	0.036923595
254	0xbe4e64d6	-0.20155653
255	0xbdaa943a	-0.08329053

mpnn_layers.0.cell.weight_ih f4 [54, 18]
0	0x3cb5a34b	0.02217259
1	0xbdd74220	-0.10510659
2	0x3e6f8482	0.23390391
3	0xbd8adbb6	-0.06780188
4	0x3e27473c	0.16335768
5	0xbd9029f0	-0.07039249
6	0xbe1c885b	-0.1528639
7	0x3e428225	0.18994959
8	0xbd8c2701	-0.06843377
9	0xbdf64c87	-0.12026315
10	0xb988ac80	-0.00026068464
11	0x3a115430	0.0005543856
12	0x3d912556	0.070871994
13	0xbe1924f1	-0.14955498
14	0xbd78f6e3	-0.060782325
15	0x3e18fb94	0.1493972
16	0x3da6afc6	0.08138995
17	0x3e5a793a	0.21335307
18	0x3d6966f6	0.056982957
19	0xbd0fb7f6	-0.03508755
20	0xbcb94474	-0.022615649
21	0xbca544d0	-0.020174414
22	0xbd86d0e9	-0.06582815
23	0xbddf17c8	-0.10893208
24	0x3c0e8fd9	0.008701288
25	0x3d46804a	0.04846219
26	0x3e435ae2	0.19077638
27	0x3e296f4c	0.16546363
28	0xbe84070f	-0.25786635
29	0x3e3c360e	0.18379995
30	0xbcafd79b	-0.021465113
31	0xbea60d8b	-0.32432207
32	0x3e12acf0	0.14323783
33	0xbdf78a85	-0.120869674
34	0xbe0f953f	-0.14021777
35	0x3d375a15	0.044763643
36	0x3cf918aa	0.030407269
37	0x3e1cd04d	0.15313835
38	0xbe2ea745	-0.17055996
39	0x3dfcf0b4	0.12350598
40	0x3d9c40d1	0.0762955
41	0x3e190264	0.14942318
42	0xbda5c9a2	-0.08095099
43	0x3d22efeb	0.039779585
44	0x3d806a41	0.06270266
45	0x3e5d4bbd	0.21610923
46	0xbe1274af	-0.14302324
47	0xbe6873f0	-0.22700477
48	0xbe5f3e1f	-0.21801041
49	0x3c2a9b7d	0.010413048
50	0xbe4c5ae6	-0.1995655
51	0xbd84cfdf	-0.06484961
52	0xbe0d796c	-0.1381585
53	0x3d6e31ae	0.058152847
54	0xbe126fbd	-0.14300437
55	0x3e31f00b	0.17376725
56	0xbe51e18c	-0.20496196
57	0xbdd368b9	-0.10322709
58	0x3d9ebc51	0.07750762
59	0xbe836177	-0.25660297
60	0x3d1e796e	0.038690023
61	0xbdbb1cb6	-0.091363356
62	0xbda6e51e	-0.081491694
63	0x3e2267a2	0.15859845
64	0xbdcaa2eb	-0.098943554
65	0x3d9a7344	0.075415164
66	0xbd866acd	-0.065633394
67	0x3da03b41	0.07823802
68	0x3e703a00	0.23459625
69	0x3e86c0e2	0.26319033
70	0xbe0c8a2a	-0.1372458
71	0xbe860d62	-0.26182085
72	0xbe04cd5c	-0.12968963
73	0x3dfb4f3c	0.12270972
74	0x3e147570	0.14497924
75	0x3e255050	0.16143918
76	0x3e1c8f6f	0.1528909
77	0x3e496044	0.19665629
78	0xbe2aa0ff	-0.16662978
79	0xbe3ccf8a	-0.18438545
80	0xbda3bef2	-0.07995404
81	0x3e2e6f29	0.17034592
82	0xbe5a4358	-0.21314752
83	0x3e5a4265	0.2131439
84	0x3dacbbbc	0.08434245
85	0x3dbdc69a	0.09266396
86	0x3e6c5ef0	0.23083091
87	0x3e8fe0ef	0.28101298
88	0x3e7b038b	0.2451307
89	0xbdcc400f	-0.09973156
90	0xbd808d6d	-0.06276975
91	0x3df35a4d	0.11882458
92	0x3e5cc1f4	0.21558362
93	0x3bb60493	0.0055547445
94	0xba5ce715	-0.0008426768
95	0xbd29c409	-0.04144672
96	0xbe0b2537	-0.13588415
97	0x3e0548ba	0.13016024
98	0xbe8adf61	-0.2712355
99	0x3e87afda	0.26501352
100	0xba29db06	-0.00064794754
101	0xbe1aac5c	-0.15104812
102	0xbd9e6918	-0.07734889
103	0xbe17f7a1	-0.14840557
104	0xbe21b4da	-0.15791646
105	0x3cfb82c1	0.030701997
106	0x3b9695af	0.0045954804
107	0xbe0addff	-0.13561247
108	0xbd8e7336	-0.069555685
109	0xbd84c57e	-0.06482981
110	0x3d912041	0.0708623
111	0xbe627727	-0.22115766
112	0xbcc2e350	-0.023790032
113	0x3cd4c462	0.025972549
114	0xbe5fa1b5	-0.2183903
115	0x3e400b28	0.18754256
116	0xbe0d7f19	-0.13818015
117	0x3e42c3f2	0.1902006
118	0x3e55bb00	0.20872116
119	0xbbca974f	-0.006182588
120	0x3e2113ce	0.15730211
121	0xbe04fa2d	-0.1298606
122	0xbda47082	-0.08029272
123	0xbe65fb98	-0.22459257
124	0xbe1fb5fc	-0.15596765
125	0x3dcfef4b	0.101530634
126	0x3e5dad4c	0.21648139
127	0xbdd23a81	-0.10265065
128	0xbd5331ca	-0.051561154
129	0xbdc45cfa	-0.09588046
130	0x3cd31e39	0.025771247
131	0xbe6bf860	-0.23043966
132	0xbe1c89fe	-0.15287015
133	0xbc15307a	-0.009105796
134	0x3e96b46a	0.2943452
135	0x3d763497	0.060108747
136	0xbe047a39	-0.12937249
137	0x3e271c1e	0.1631932
138	0x3e3fa2f6	0.18714508
139	0x3d6ffee8	0.058592707
140	0x3dda51f1	0.1066016
141	0xbb3973ee	-0.002829786
142	0x3e40017e	0.18750569
143	0x3db51180	0.088412285
144	0x3e3bf562	0.18355325
145	0x3e2ef63d	0.1708612
146	0xbd6fd85e	-0.058555953
147	0x3e530ae3	0.20609622
148	0x3d1725b3	0.036901187
149	0x3e69d501	0.22835161
150	0x3e777f65	0.24169691
151	0x3e551475	0.20808585
152	0x3e234a60	0.1594634
153	0x3e37bbde	0.1794276
154	0xbdf218fa	-0.1182117
155	0xbdbf3e82	-0.09338094
156	0xbd64dcac	-0.05587451
157	0xbe0f02a3	-0.1396585
158	0x3e3e75af	0.1859958
159	0x3c3b76d4	0.011441905
160	0xbd856a7b	-0.0651445
161	0xbdcef0e0	-0.10104537
162	0xbe54de58	-0.20787942
163	0x3cff0c2c	0.031133734
164	0x3e63466e	0.22194836
165	0x3e242a6a	0.16031805
166	0x3e5b70da	0.21429768
167	0x3e20a1dc	0.15686744
168	0x3df7c8b8	0.12098831
169	0xbcdf3b7b	-0.027250042
170	0xbe4ddf86	-0.20104799
171	0x3e399f1d	0.18127103
172	0xbe34093a	-0.17581645
173	0xbe179a51	-0.14804961
174	0x3de48ac3	0.11159279
175	0xba9d73b5	-0.0012012633
176	0xbe3fdb73	-0.18736057
177	0x3e419572	0.18904665
178	0xbe706b39	-0.23478402
179	0x3d8452d5	0.064611115
180	0x3e084e87	0.13311206
181	0x3dd79dd7	0.105281524
182	0xbd9cbde7	-0.076534085
183	0xbdf815c1	-0.12113524
184	0x3e6c8dc0	0.23100948
185	0x3c935b98	0.017988011
186	0xbdd280e2	-0.10278489
187	0x3e87ee74	0.26549113
188	0xbdcd23ac	-0.100165695
189	0xbd6a2bc7	-0.057170656
190	0x3ccb5afa	0.024823654
191	0x3e69f121	0.2284589
192	0xbd73f86f	-0.059563097
193	0xbd90499a	-0.070452884
194	0xbdf23060	-0.11825633
195	0xbd04491a	-0.032296278
196	0xbca716e8	-0.020396665
197	0xbc8add1b	-0.016951134
198	0x3e31217a	0.17297927
199	0xbdf62cc7	-0.12020259
200	0x3e43709a	0.19085923
201	0x3e719c66	0.23594818
202	0x3c8847cf	0.016635804
203	0xbd909ce6	-0.07061176
204	0x3dc38fd2	0.09548916
205	0xbe1e3d37	-0.15453039
206	0x3e35bde5	0.1774822
207	0xbd97636c	-0.0739201
208	0xbd32689f	-0.043556806
209	0x3e212d08	0.15739834
210	0x3e199599	0.14998473
211	0xbe1e34bc	-0.15449804
212	0xbe1eaeba	-0.1549634
213	0xbe37dc05	-0.17955025
214	0xbe3b6de0	-0.18303633
215	0xbdc615dd	-0.09672139
216	0xbe2b05b8	-0.167014
217	0xbca55554	-0.02018229
218	0xbdf61432	-0.12015571
219	0x3e0cb7c9	0.13741983
220	0x3e299881	0.16562082
221	0x3e46e250	0.19422269
222	0xbe113eeb	-0.14184158
223	0xbe217d6f	-0.15770505
224	0x3d9038cd	0.07042084
225	0xbc2aa4fe	-0.010415314
226	0x3e33e580	0.17568016
227	0xbe67818d	-0.22608013
228	0x3e62d8f0	0.22153068
229	0xbe22ca7e	-0.15897557
230	0xbe20f01b	-0.15716593
231	0xbd177b81	-0.036983017
232	0xbd9d44a9	-0.076791115
233	0xbe280e8a	-0.16411796
234	0x3e0448af	0.12918352
235	0x3e4380fc	0.19092172
236	0x3e0f67c8	0.14004433
237	0x3cf76f96	0.030204576
238	0x398eb8fe	0.0002722218
239	0xbe003420	-0.12519884
240	0x3e50ca28	0.20389616
241	0xbe12e9d8	-0.14347017
242	0xbe6c7a20	-0.23093462
243	0x3e58bbaf	0.21165346
244	0xbc845715	-0.016154805
245	0x3e1ecee2	0.15508607
246	0xbd96aa2c	-0.073566765
247	0x3e02c667	0.12770997
248	0xbe3b2efc	-0.18279642
249	0x3e43e88d	0.1913168
250	0x3e59e58a	0.21278968
251	0x3b4d6a07	0.0031343715
252	0x3e2758fd	0.1634254
253	0x3c660aa6	0.014040625
254	0xbe5c2ba3	-0.21501021
255	0x3dbe1c01	0.09282685

mpnn_layers.0.cell.weight_hh f4 [54, 18]
0	0xbccce639	-0.025012122
1	0x3e157965	0.1459709
2	0x3e2d54bf	0.1692686
3	0xbe5b6ef4	-0.21429044
4	0x3e43223f	0.19056033
5	0x3d98de45	0.074642695
6	0x3de5090c	0.11183366
7	0xbe30b5c0	-0.17256832
8	0xbe34281f	-0.1759343
9	0x3e58337f	0.21113394
10	0x3daab8db	0.0833604
11	0xbd936d99	-0.071986385
12	0xbd556847	-0.0521014
13	0x3e0c4e08	0.13701642
14	0xbd86e57f	-0.06586742
15	0x3e050ab8	0.1299237
16	0xbcef4ca2	-0.029211346
17	0x3d1d0e9b	0.038344007
18	0x3db11a5d	0.086476065
19	0xbe0d453d	-0.13795944
20	0xbcf45bea	-0.029828984
21	0x3c8c670a	0.017138977
22	0xbe3bf545	-0.18355282
23	0xbd86b66e	-0.065777645
24	0x3d75ce48	0.06001118
25	0x3e1cf8fc	0.15329355
26	0x3d31cacf	0.043406304
27	0xbe6e44d9	-0.23268451
28	0xbd0a6d7e	-0.033795826
29	0x3e4de5e4	0.20107228
30	0xbd5805ab	-0.05273978
31	0x3e14a12f	0.14514612
32	0xb97917d2	-0.00023755364
33	0x3deda216	0.11603181
34	0xbd6c34e6	-0.057667635
35	0x3e4f2df2	0.2023237
36	0x3d2533b7	0.040332522
37	0xbd087497	-0.033314314
38	0x3e42ffae	0.19042847
39	0x3e0aac03	0.1354218
40	0xbe2176bf	-0.15767954
41	0x3ce33633	0.027735805
42	0x3e223d51	0.15843703
43	0x3d95ebd3	0.073203705
44	0xbdc5ce05	-0.09658436
45	0xbe10fbb7	-0.14158522
46	0xbe32e3e5	-0.17469747
47	0x3e1038bd	0.14084144
48	0x3df146d8	0.117810905
49	0xbe4c0b09	-0.19926085
50	0xbd2bc76d	-0.041938234
51	0x3d89ff73	0.06738176
52	0xbe5fd1f3	-0.21857433
53	0x3e5b6b8a	0.21427742
54	0x3c9ba546	0.018999707
55	0xbe18ec97	-0.14934002
56	0xbcbe6dd1	-0.023245724
57	0x3cd0c024	0.025482245
58	0x3de8d4e2	0.11368729
59	0x3e18d55a	0.14925137
60	0x3e3bade6	0.18328056
61	0xbdb176fc	-0.086652726
62	0x3d82169b	0.06351968
63	0x3b2c8f2b	0.0026330452
64	0xbd499eab	-0.049223583
65	0xbe8152d3	-0.25258502
66	0xbd9635ac	-0.07334456
67	0xbe0eae72	-0.13933733
68	0xbe888980	-0.26667404
69	0x3d09e20e	0.03366285
70	0xbd7de00a	-0.06198124
71	0x3e32c196	0.1745666
72	0x3e0505d3	0.12990503
73	0x3d7ea804	0.06217195
74	0x3cabe9d0	0.020985514
75	0x3d4ac53f	0.049504515
76	0x3e40ff11	0.188473
77	0x3e0697d0	0.1314385
78	0x3d14d865	0.036339182
79	0xbde90425	-0.11377744
80	0x3d7a0ccc	0.06104736
81	0xbe1ca537	-0.152974
82	0x3d164537	0.036687102
83	0x3caada46	0.020856034
84	0x3d82e415	0.063911594
85	0xbe8d1698	-0.275563
86	0x3d513b4f	0.05108195
87	0xbe0e1eb0	-0.13878894
88	0xbded4a29	-0.115864106
89	0xbe16d515	-0.14729722
90	0xbc75afc9	-0.014995524
91	0x3e0b4b06	0.13602838
92	0xbe4d0b02	-0.2002373
93	0x3d470c65	0.048595805
94	0x3e4ed9bb	0.20200245
95	0xbde87c87	-0.11351877
96	0x3d689979	0.056786988
97	0xbda8f4d9	-0.08249826
98	0x3c697bd8	0.014250718
99	0x3de9873a	0.114027455
100	0xbe222bc8	-0.15837014
101	0x3d8e4893	0.06947436
102	0x3e8503ae	0.2597937
103	0x3cd22cb1	0.025656076
104	0xbe08932c	-0.13337392
105	0x3bc27492	0.0059343064
106	0x3d59ebaa	0.053203262
107	0x3dabb57d	0.083842255
108	0xbd3a122c	-0.045427486
109	0xbc54f390	-0.012997523
110	0xbdc0d4dd	-0.094156004
111	0x3e21a929	0.15787186
112	0xbe265b01	-0.16245653
113	0xbd5fe44d	-0.054661084
114	0x3e14de97	0.14538036
115	0xbdb48b67	-0.088156514
116	0xbda228d1	-0.07917941
117	0xbd8b5be4	-0.06804636
118	0xbe6fc15b	-0.23413603
119	0x3e0f12e7	0.13972054
120	0xbd86f8f9	-0.065904565
121	0xbdad5587	-0.08463579
122	0xbc1407e5	-0.009035085
123	0x3daa30bc	0.083100766
124	0x3e5420a8	0.20715582
125	0x3e7317e0	0.23739576
126	0x3cfe5c22	0.031049792
127	0xbe7883eb	-0.24269073
128	0xbc819599	-0.015818404
129	0xbcee5e53	-0.029097712
130	0x3e7b48e7	0.24539529
131	0xbdca098e	-0.09865104
132	0xbe452d43	-0.19255547
133	0x3d127e1b	0.035764795
134	0xbbd9c76f	-0.006646089
135	0x3d36bfd6	0.044616543
136	0x3dd36535	0.10322038
137	0x3d4eaff1	0.05046076
138	0x3dbee285	0.09320549
139	0xbe4b0495	-0.19825967
140	0xbe6ace2a	-0.22930208
141	0x3e3f1ff4	0.18664533
142	0x3e765e3b	0.24059384
143	0xbe0460e0	-0.1292758
144	0x3e6acc55	0.22929509
145	0x3d26e16a	0.040742315
146	0xbd88a89c	-0.06672785
147	0xbe08179a	-0.13290253
148	0xbdf2d938	-0.118578374
149	0x3e350c87	0.1768056
150	0xbe10e6fd	-0.14150615
151	0xbddfdb71	-0.10930527
152	0x3e706482	0.2347584
153	0xbdf6bdfa	-0.12047954
154	0x3e71e5d0	0.23622823
155	0x3dce32bc	0.100682706
156	0x3de45c58	0.11150426
157	0x3d4958d8	0.049156994
158	0xbd4182dc	-0.047243938
159	0x3dcd8670	0.100354075
160	0x3d95e929	0.073198624
161	0xbe09834b	-0.1342899
162	0xbe537f96	-0.20654139
163	0xbe2348ab	-0.1594569
164	0xbd0c6a58	-0.034281105
165	0x3d54de19	0.05196962
166	0xbe0029ec	-0.12515992
167	0x3d942b99	0.07234878
168	0x3e1b9338	0.15192878
169	0x3dfab957	0.12242382
170	0xbe1f6ef6	-0.15569672
171	0x3d618faf	0.055068668
172	0xbe5596cd	-0.20858307
173	0x3e303a43	0.17209725
174	0xbe1ffe07	-0.15624247
175	0x3c36552b	0.011128704
176	0xbd3d6418	-0.046238035
177	0xbe58216b	-0.21106498
178	0xbe3dc20e	-0.18531057
179	0xbe163925	-0.14670236
180	0xbe0e198a	-0.1387693
181	0x3e37b074	0.17938405
182	0xbda3b066	-0.0799263
183	0xbe5d5bb8	-0.21617019
184	0x3d161354	0.036639526
185	0xbdbd9ad8	-0.0925805
186	0x3cbfa548	0.023394242
187	0x3e21e77e	0.15810964
188	0xbe959b35	-0.29219976
189	0xbe768753	-0.2407506
190	0x3dcab46f	0.09897696
191	0x3e01b40d	0.1266634
192	0xbe6b1d14	-0.22960311
193	0x3d05969b	0.03261433
194	0x3e680b3c	0.22660536
195	0xbdb3d7db	-0.087814055
196	0xbd9da19c	-0.0769684
197	0x3da1e26a	0.07904513
198	0x3e427f7d	0.18993945
199	0xbd9d35a1	-0.076762445
200	0xbe7fadde	-0.24968669
201	0xbd4a6bfe	-0.049419396
202	0xbdcec236	-0.100956365
203	0xbe7ea86f	-0.2486894
204	0x3e54c257	0.2077726
205	0x3dd9b952	0.1063105
206	0x3df3186a	0.11869891
207	0xbe7e3af3	-0.24827175
208	0x3e843377	0.25820515
209	0x3de927a9	0.11384518
210	0x3e199cfc	0.15001291
211	0xbd95a0d4	-0.07306066
212	0xbdc49174	-0.095980555
213	0xbe891c47	-0.26779386
214	0x3e717f83	0.23583798
215	0xbd8b7599	-0.06809539
216	0xbe599e02	-0.21251681
217	0x3e450b3d	0.19242568
218	0xbd25ed77	-0.040509667
219	0x3e0baa49	0.13639177
220	0xbcf96ab8	-0.030446395
221	0xbd6bdf1c	-0.05758582
222	0x3e596497	0.21229778
223	0x3e41e9ee	0.18936893
224	0xbd1bbf8e	-0.038024478
225	0xbc046845	-0.0080815
226	0x3e2e7e5e	0.17040393
227	0xbb9328ef	-0.0044909636
228	0xbd98aad1	-0.07454456
229	0x3e49cd51	0.19707228
230	0x3e389481	0.180254
231	0xbd8e7662	-0.069561735
232	0x3e2d33ce	0.16914293
233	0xbd2c6a49	-0.04209355
234	0x3c935366	0.017984103
235	0x3e2c9014	0.16851836
236	0xbcdbe65e	-0.026843246
237	0xbcc4dfec	-0.024032556
238	0xbd31f16c	-0.04344313
239	0xbe48d9d7	-0.1961435
240	0x3e458f14	0.19292861
241	0xbe4de9b8	-0.20108688
242	0xbe155401	-0.14582826
243	0x3cc6c465	0.02426357
244	0xbc872a7a	-0.016499747
245	0xba974fa5	-0.0011544122
246	0x3b5e4574	0.003391591
247	0x3e664c42	0.22490028
248	0xbe7d3b7b	-0.24729721
249	0xbe1a646f	-0.15077375
250	0x3d4e7021	0.050399903
251	0xbe610dd3	-0.2197793
252	0xbe3657d8	-0.17806947
253	0x3e2f66ac	0.1712901
254	0x3dacfe65	0.084469594
255	0xbd8457d4	-0.064620644

mpnn_layers.0.cell.bias_ih f4 [54]
0	0x3d97a06e	0.074036464
1	0xbe27494f	-0.16336559
2	0x3dbf8a98	0.093526065
3	0xbe1e479c	-0.15457004
4	0xbe339e65	-0.17540891
5	0xbdaff461	-0.085915335
6	0x3e272bf0	0.16325355
7	0x3e1ccd62	0.15312722
8	0x3e21eb72	0.15812472
9	0xbd611156	-0.054948173
10	0x3e7fd29f	0.2498269
11	0xbd499cdc	-0.04922186
12	0xbc2b3ba3	-0.01045123
13	0xbe547dde	-0.2075114
14	0x3cbdc233	0.02316389
15	0x3d938c0f	0.072044484
16	0xbe3d0292	-0.18458012
17	0x3e566b49	0.20939364
18	0x3d2d5070	0.04231304
19	0x3e6245c6	0.22096929
20	0xbdd1978c	-0.102339834
21	0xbc70743e	-0.014676152
22	0xbe02e80f	-0.12783836
23	0x3e302baf	0.17204164
24	0xbe0313e4	-0.12800556
25	0x3e2ca2ba	0.1685895
26	0xbe1d7a19	-0.15378608
27	0x3e2f73d0	0.17134023
28	0xbe5c5551	-0.2151692
29	0xbdb8ca37	-0.090229444
30	0xbdc7a15b	-0.09747573
31	0xbd03d954	-0.032189682
32	0x3c8a2855	0.016864935
33	0x3da860a8	0.08221561
34	0x3e5dc13c	0.21655744
35	0x3e16bf32	0.14721373
36	0xbe0d9a8d	-0.13828488
37	0x3e8b3fae	0.2719702
38	0xbd0dbb04	-0.03460218
39	0xbdfbefd3	-0.12301602
40	0x3d179a67	0.037012484
41	0xbc9233ba	-0.01784693
42	0x3e7f6798	0.24941862
43	0xbc21d72d	-0.009877962
44	0x3e1704c9	0.14747919
45	0x3d780952	0.060555764
46	0xbe0c67cb	-0.13711469
47	0x3adca32f	0.00168333
48	0xbe3ee84d	-0.18643303
49	0xbd8ea2af	-0.06964623
50	0xbda3a638	-0.07990688
51	0xbe40a890	-0.18814301
52	0x3d8a6ae8	0.06758672
53	0x3e31009b	0.17285387

mpnn_layers.0.cell.bias_hh f4 [54]
0	0xbe5304bc	-0.20607275
1	0x3e2bc07c	0.16772646
2	0xbe468423	-0.19386344
3	0xbe40f09d	-0.18841787
4	0x3e023051	0.12713744
5	0xbcd0c249	-0.025483267
6	0xbe2dd3c4	-0.16975313
7	0x3e7af5fc	0.24507898
8	0x3cd3f219	0.025872277
9	0xbe176cf1	-0.14787652
10	0x3e195754	0.1497472
11	0x3d997715	0.07493416
12	0xbd01c12e	-0.03167837
13	0xbe22ad78	-0.15886486
14	0xbbbe66ed	-0.0058106096
15	0x3e1e1ceb	0.15440719
16	0xbd9689a2	-0.0735047
17	0x3df55e53	0.119808815
18	0xbe6f4628	-0.23366606
19	0xbdbe7522	-0.09299685
20	0xbd99a61a	-0.075023845
21	0xbe6e9d27	-0.23302136
22	0x3d034493	0.03204782
23	0xbe58ddfb	-0.21178429
24	0x3e0f88d3	0.14017038
25	0x3da64787	0.081191115
26	0x3c737130	0.014858529
27	0xbe0697b2	-0.13143805
28	0xbd9b7e7f	-0.075924866
29	0x3dac600f	0.08416759
30	0x3e71288d	0.23550625
31	0xbdd72bfc	-0.10506436
32	0xbe0ff562	-0.1405845
33	0xbdc9bde2	-0.098506704
34	0xbe2810b8	-0.16412628
35	0xbcb9b073	-0.022667145
36	0xbe52b138	-0.20575416
37	0x3e592d61	0.21208717
38	0x3e25e7b2	0.16201666
39	0xbe1226e6	-0.14272651
40	0x3e192dee	0.14958927
41	0x3d1b5a7d	0.037928093
42	0xbddeeba4	-0.10884789
43	0x3d2c2644	0.04202868
44	0xbe634917	-0.2219585
45	0xbe154df9	-0.14580525
46	0xbdfa4747	-0.12220626
47	0xbe3731bb	-0.17890064
48	0xbdc1a553	-0.09455361
49	0x3d3fc2b5	0.046816546
50	0x3d4ac6e2	0.049506076
51	0xbe74e019	-0.23913611
52	0xbe82ed37	-0.25571606
53	0xbcfca6da	-0.03084128

mpnn_layers.1.edge_network.0.weight f4 [15, 6]
0	0x3eb38af7	0.3506696
1	0x3e05c5ec	0.13063782
2	0x3ec7685b	0.38946804
3	0xbe0c9e3e	-0.1373224
4	0x3df3c2b6	0.119023725
5	0xbebcda8d	-0.3688549
6	0x3e904441	0.28177074
7	0x3dca1138	0.098665655
8	0xbdfbc8a7	-0.12294131
9	0xbea0673c	-0.31328762
10	0xbe98c334	-0.29836428
11	0xbd830ccf	-0.063989274
12	0xbd111227	-0.035417702
13	0xbe6440bd	-0.2229032
14	0x3e365b57	0.17808281
15	0xbd5fba00	-0.054620743
16	0x3d3356f4	0.043784097
17	0xbec5275f	-0.385066
18	0x3deb7765	0.11497382
19	0xbe4c6275	-0.19959433
20	0xbe9df0e1	-0.3084784
21	0xbe27c698	-0.16384351
22	0xbebe19cb	-0.37129053
23	0xbe9f8b80	-0.31161118
24	0x3e9bd7bf	0.3043804
25	0x3eab1794	0.33416426
26	0xbe912fc9	-0.2835677
27	0x3db552a0	0.0885365
28	0xbe575409	-0.2102815
29	0x3ec3984b	0.38202128
30	0x3e8b753f	0.2723789
31	0x3e665f79	0.22497357
32	0xbebb1547	-0.3653967
33	0xbe7102a8	-0.2353617
34	0xbd900873	-0.070328616
35	0xbeaddec0	-0.33959007
36	0xbe74507b	-0.23858826
37	0x3ddc2104	0.10748485
38	0xbeaa290f	-0.3323445
39	0x3dde7543	0.1086221
40	0xbc18db02	-0.009329559
41	0xbd09b43e	-0.033619158
42	0xbde9d8e1	-0.114183195
43	0xbe5b066b	-0.21389167
44	0xbec73c09	-0.3891299
45	0xbea1f332	-0.31630856
46	0x3e9f55fe	0.31120294
47	0xbcf42b75	-0.029805878
48	0x3ecb8941	0.39753154
49	0x3cb05057	0.021522684
50	0xbd4519e9	-0.048120413
51	0x3e7ab35a	0.2448248
52	0xbec4c9e6	-0.38435286
53	0xbe818e78	-0.25304008
54	0x3e6c5183	0.23077969
55	0xbdf22c6a	-0.118248776
56	0x3eae5003	0.3404542
57	0x3ba6fc8d	0.0050960244
58	0x3e9467d6	0.2898547
59	0x3c783ac9	0.015150734
60	0x3d14a89e	0.03629362
61	0xbeb7f953	-0.35932407
62	0xbe0ae392	-0.13563374
63	0x3d26f7dd	0.040763725
64	0x3e3d6815	0.18496735
65	0x3daff2f9	0.08591265
66	0xbda8df98	-0.08245772
67	0xbbf50041	-0.007476837
68	0x3ebbac80	0.36655045
69	0x3e945aac	0.28975427
70	0x3e1406d7	0.14455734
71	0xbe9d25f6	-0.30693024
72	0xbe0cac8b	-0.13737695
73	0x3e85769f	0.26067063
74	0x3ebc0ea1	0.3672991
75	0xbe44dd59	-0.19225062
76	0x3e31993f	0.17343615
77	0xbdc39063	-0.09549024
78	0x3e9bf4e1	0.30460265
79	0xbd46e7b0	-0.0485608
80	0xbec2e974	-0.38068736
81	0xbef4ed9d	-0.47837535
82	0x3cf2fdd8	0.029662058
83	0x3e25a048	0.16174424
84	0xbe76e15a	-0.24109402
85	0x3ea4b9c4	0.32172978
86	0x3e45e36f	0.1932504
87	0x3e7a7375	0.24458106
88	0x3e4041b3	0.18775062
89	0xbec96ecf	-0.39342353

mpnn_layers.1.edge_network.0.bias f4 [15]
0	0xbdbb64d7	-0.09150093
1	0x3e8f9b47	0.28048155
2	0x3e4febcd	0.20304795
3	0xbebe2efc	-0.3714522
4	0xbe6cf6a9	-0.23140968
5	0x3ea24b99	0.316983
6	0xbead0ea4	-0.33800232
7	0x3ea46bde	0.32113546
8	0xbda14fb8	-0.07876533
9	0x3ca5e57d	0.02025103
10	0x3e4aa01a	0.19787636
11	0x3dcd6077	0.10028165
12	0xbe85f940	-0.26166725
13	0x3e430e9e	0.19048545
14	0xbeb39fbd	-0.35082808
